artifacts/best_model.pt (torch, 42658 bytes, 62 tensors)

features.0.weight f4 [8, 3, 3, 3]
0.1249349 0.1847289 -0.051971335 0.15377356 -0.07889683 -0.0694461 -0.08141645 0.092848994
0.116391316 -0.099720925 0.2954974 0.1441572 0.1670815 0.08368717 0.09768028 -0.019580392
0.13997796 0.002735667 -0.04056114 0.17531082 0.023492863 0.020923873 -0.0019972504 0.1603874
-0.11877589 -0.07460159 -0.057067953 -0.14309159 -0.07396435 -0.2186551 0.070795015 -0.23947716
0.05511069 0.041947443 0.008159668 0.09995359 0.07434929 0.13215567 0.058549196 -0.15805387
-0.017853782 -0.1447988 0.015445131 0.16404405 0.02014034 0.011886582 0.1348 0.116563685
0.053450678 -0.12308259 -0.22975166 -0.11955633 -0.12532333 0.09443312 0.07960147 0.16039903
0.17534755 0.038795877 0.18837595 -0.075346366 0.02912844 -0.18531369 0.033414386 -0.106295355
0.05178129 -0.02257927 0.15360261 -0.12388667 -0.10179037 -0.08243043 0.15175053 0.07092919
0.15618403 -0.15873839 -0.16908418 -0.14970689 -0.13174243 0.09766441 0.09139019 0.13168116
-0.100825645 -0.082051285 0.12982309 -0.03586435 0.10156004 -0.050678223 0.13240679 -0.20643233
-0.15340348 0.064076506 0.047806587 -0.07316538 0.12365797 0.06971454 -0.2116825 -0.11873865
0.0925017 -0.16853721 -0.08245703 -0.12899959 -0.07566435 0.11331697 -0.01857415 -0.11669916
0.06638285 -0.1257426 -0.174751 -0.042576626 -0.09077269 -0.08434875 0.2378346 0.056128874
0.07661108 -0.12837797 -0.04949586 0.0074072727 0.13064104 -0.09475369 -0.04615637 -0.08271542
-0.049406964 -0.10967103 -0.016822154 -0.22406778 -0.1923511 -0.12590171 0.040540125 -0.07480793
0.23119351 -0.009603374 0.19577318 0.11690918 -0.14267123 0.16654868 0.012571583 -0.06395546
-0.17947881 -0.20305271 0.0360341 -0.072836034 0.08441514 -0.192434 0.11437176 -0.100556
-0.008437678 0.03870462 0.10376218 0.15344334 0.17390291 -0.12234134 0.012906863 -0.09879498
0.03307771 -0.0719401 0.22278768 -0.09580864 0.1478555 0.098331295 0.117171355 -0.097753875
0.19218507 0.12378474 0.011250964 -0.19248725 0.06897266 -0.030946346 -0.09687248 0.14273126
0.034224465 -0.109455384 -0.09200448 -0.014281072 0.096655175 -0.06485895 -0.109312564 -0.06646405
-0.17901574 0.06433822 0.15514079 -0.18887192 0.06281952 0.10694413 0.03443821 -0.043295924
0.122414336 0.08684301 0.08985624 -0.0030077463 -0.029200653 -0.0171245 -0.051832225 -0.06887599
0.10791151 0.15584831 -0.03671924 -0.03611322 0.009260332 -0.019773422 0.002004442 0.052426804
-0.13869385 -0.07489696 0.176855 0.10514404 0.012800265 -0.07763439 -0.07595832 -0.2938209
-0.15050094 0.01809586 0.06396476 0.044462945 -0.2012328 -0.14719021 -0.050074834 0.16862099
00000000: dedd ff3d 9329 3d3e e5df 54bd d176 1d3e
00000010: a994 a1bd c239 8ebd abbd a6bd 9d27 be3d
00000020: 925e ee3d 7c3a ccbd 6f4b 973e f29d 133e
00000030: 6a17 2b3e 2e64 ab3d 990c c83d 0f67 a0bc
00000040: 6256 0f3e e048 333b 7023 26bd ae84 333e
00000050: 1b74 c03c 8b68 ab3c 4de4 02bb 983c 243e
00000060: c640 f3bd b8c8 98bd 16c0 69bd 9a86 12be
00000070: 9f7a 97bd 1fe7 5fbe fafc 903d 8039 75be
00000080: bfbb 613d 15d1 2b3d 21b0 053c 78b4 cc3d
00000090: 7144 983d d153 073e 48d1 6f3d e0d8 21be
000000a0: 1842 92bc 2346 14be 930d 7d3c 2afb 273e
000000b0: 5bfd a43c f0bf 423c 0309 0a3e f1b8 ee3d
000000c0: 19ef 5a3d ba12 fcbd 0544 6bbe f3d9 f4bd
000000d0: c254 00be 2766 c13d 1806 a33d a53f 243e
000000e0: 4f8e 333e 6de8 1e3d a0e5 403e 324f 9abd
000000f0: c49e ee3c dfc2 3dbe 86dd 083d 61b1 d9bd
00000100: 9e18 543d 29f8 b8bc 014a 1d3e 4bb8 fdbd
00000110: 7877 d0bd 49d1 a8bd 7e64 1b3e 5343 913d
00000120: b5ee 1f3e 518c 22be 6724 2dbe c34c 19be
00000130: 7de7 06be 4704 c83d c82a bb3d 6dd7 063e
00000140: ad7d cebd 810a a8bd 58f0 043e 7fe6 12bd
00000150: b6fe cf3d f893 4fbd a595 073e ff62 53be
00000160: cd15 1dbe 8b3a 833d d7d0 433d bbd7 95bd
00000170: 6440 fd3d 7fc6 8e3d 4cc3 58be 402d f3bd
00000180: 8871 bd3d 0595 2cbe 3bdf a8bd 7818 04be
00000190: e9f5 9abd ba12 e83d d128 98bc f8ff eebd
000001a0: bbf3 873d abc2 00be edf1 32be d464 2ebd
000001b0: 08e7 b9bd 0abf acbd ea8a 733e 64e7 653d
000001c0: 45e6 9c3d 8475 03be 2cbc 4abd b5b8 f23b
000001d0: c4c6 053e 390e c2bd 760e 3dbd b466 a9bd
000001e0: f55e 4abd 349b e0bd 9dce 89bc 0672 65be
000001f0: b0f7 44be 61ec 00be 670d 263d e634 99bd
00000200: febd 6c3e 7857 1dbc c478 483e 156e ef3d
00000210: 6818 12be bd8b 2a3e 0af9 4d3c 15fb 82bd
00000220: 4bc9 37be 0ded 4fbe 7e98 133d 0f2b 95bd
00000230: d8e1 ac3d 6b0d 45be be3b ea3d 4ef0 cdbd
00000240: 303e 0abc bc88 1e3d 4481 d43d 4020 1d3e
00000250: 9b13 323e 198e fabd 4f77 533c 0655 cabd
00000260: 7e7c 073d 5555 93bd 7422 643e 5237 c4bd
00000270: 6f67 173e eb61 c93d 89f7 ef3d 2f33 c8bd
00000280: 2acc 443e db82 fd3d f755 383c 611b 45be
00000290: 8a41 8d3d 3183 fdbc 1465 c6bd 2528 123e
000002a0: f42e 0c3d 252a e0bd d86c bcbd 28fb 69bc
000002b0: 26f3 c53d c5d4 84bd 44df dfbd 4e1e 88bd
000002c0: e74f 37be c2c3 833d 3add 1e3e a467 41be
000002d0: 85a7 803d 8605 db3d 150f 0d3d 1157 31bd
000002e0: 5eb4 fa3d bfda b13d 8c06 b83d 9c1d 45bb
000002f0: 3536 efbc ae48 8cbc 074e 54bd db0e 8dbd
00000300: b600 dd3d b396 1f3e ea66 16bd 75eb 13bd
00000310: a6b8 173c dffb a1bc f55c 033b 7dbd 563d
00000320: c305 0ebe 9463 99bd 7a19 353e c255 d73d
00000330: 34b8 513c c7fe 9ebd 0990 9bbd b16f 96be
00000340: eb1c 1abe c53d 943c f5ff 823d c71e 363d
00000350: f90f 4ebe 08b9 16be 451b 4dbd fbaa 2c3e

features.1.weight f4 [8]
0.98453337 0.86341053 0.9995149 0.9379498 0.93035215 0.93087566 1.0188011 0.80624986
00000000: 610a 7c3f 7908 5d3f 35e0 7f3f 7a1d 703f
00000010: 8f2b 6e3f de4d 6e3f 1368 823f 6466 4e3f

features.1.bias f4 [8]
-0.038431942 0.1142032 0.041428264 -0.053259242 -0.07661075 0.07117042 0.0029654612 0.14845304
00000000: d06a 1dbd 5ee3 e93d afb0 293d 5d26 5abd
00000010: 19e6 9cbd ccc1 913d 2f58 423b 1304 183e

features.1.running_mean f4 [8]
1.084363 -0.37600815 0.1481301 -0.83346975 -0.10874311 0.42846987 -0.03843628 -0.50461376
00000000: 68cc 8a3f 2484 c0be 6baf 173e 465e 55bf
00000010: b5b4 debd 6760 db3e 5c6f 1dbd 5e2e 01bf

features.1.running_var f4 [8]
3.5905817 0.4324897 0.14388627 1.9337522 0.29814085 0.59101075 0.089078106 0.58564186
00000000: 17cc 6540 4a6f dd3e ec56 133e 3185 f73f
00000010: eba5 983e 7b4c 173f 956e b63d a0ec 153f

features.3.block.0.weight f4 [8, 1, 3, 3]
0.15941922 -0.026394866 0.20317376 -0.050315365 -0.21652731 0.25308806 -0.07810341 -0.09542193
-0.29465684 0.17370702 0.26176846 0.071396105 -0.2669877 -0.33916152 -0.3202549 0.23537718
0.17681567 0.21989605 0.16551067 0.12743333 0.019712292 -0.29067442 -0.30289617 -0.28146464
0.102727056 -0.17476095 -0.05752082 -0.18774544 -0.12663363 -0.21091135 -0.2731363 0.06822107
-0.07252269 0.08307386 -0.22192237 -0.27132106 -0.04307082 -0.25523588 -0.1318625 -0.33538574
0.09152792 -0.30577785 0.15847032 0.12159181 0.16377956 -0.25177255 0.1799391 -0.1979526
0.088241704 0.2863932 -0.017472507 -0.11193791 -0.16479847 -0.3478467 0.11444371 -0.3787915
0.056203146 0.32260033 0.37863195 -0.09744465 -0.23700531 0.11736417 0.06470028 -0.3796914
-0.1475833 -0.25383222 -0.058190156 -0.17062575 -0.08281946 -0.015729284 -0.24493411 0.2970726
00000000: cb3e 233e 0c3a d8bc c80c 503e 7c17 4ebd
00000010: 56b9 5dbe c294 813e aef4 9fbd 936c c3bd
00000020: 43dd 96be 41e0 313e 8406 863e 1f38 923d
00000030: 9db2 88be 94a6 adbe 73f8 a3be b706 713e
00000040: 2b0f 353e 6e2c 613e a17b 293e e27d 023e
00000050: ac7b a13c 47d3 94be 3515 9bbe 221c 90be
00000060: 9062 d23d 89f4 32be f49a 6bbd 5740 40be
00000070: 3fac 01be 25f9 57be 85d8 8bbe 7db7 8b3d
00000080: c786 94bd a122 aa3d 9e3f 63be 98ea 8abe
00000090: 076b 30bd 47ae 82be f706 07be aeb7 abbe
000000a0: fd72 bb3d ea8e 9cbe 0b46 223e 2005 f93d
000000b0: d4b5 273e 55e8 80be f541 383e 16b4 4abe
000000c0: 11b8 b43d 21a2 923e 8122 8fbc b43f e5bd
000000d0: eec0 28be f618 b2be 7761 ea3d f6f0 c1be
000000e0: 4535 663d df2b a53e 0cdc c13e 1091 c7bd
000000f0: 85b1 72be a05c f03d 9581 843d e966 c2be
00000100: 1420 17be 4cf6 81be cd58 6ebd 84b8 2ebe
00000110: 409d a9bd b3da 80bc 02d0 7abe e619 983e

features.3.block.1.weight f4 [8]
0.94304806 0.9981235 1.0934371 1.0273664 0.96956927 0.9754267 1.0210297 0.9813287
00000000: 996b 713f 0685 7f3f bff5 8b3f be80 833f
00000010: b135 783f 90b5 793f 1ab1 823f 5c38 7b3f

features.3.block.1.bias f4 [8]
-0.06397646 0.037661802 0.13267654 0.036234424 0.035143513 0.001401662 0.029149659 -0.008950203
00000000: 1706 83bd 4343 1a3d 5cdc 073e 8c6a 143d
00000010: a5f2 0f3d f9b7 b73a 44cb ee3c dfa3 12bc

features.3.block.1.running_mean f4 [8]
-0.06989979 0.07369098 -0.31348667 -0.46194804 -0.17675938 -0.21615423 0.1424765 -0.45110458
00000000: 9f27 8fbd 4ceb 963d 5381 a0be 7484 ecbe
00000010: 6900 35be 8957 5dbe 5ce5 113e 2ef7 e6be

features.3.block.1.running_var f4 [8]
0.01937129 0.10548668 0.1145452 0.31224796 0.10574923 0.05285217 0.09966556 0.2804294
00000000: 8ab0 9e3c 6709 d83d ac96 ea3d f7de 9f3e
00000010: 0d93 d83d 847b 583d 751d cc3d 7194 8f3e

features.3.block.3.weight f4 [9, 8, 1, 1]
0.25437623 -0.08389602 -0.10060201 -0.11636876 -0.33141252 -0.3575822 0.17153575 -0.15913124
-0.15842518 0.0071463287 -0.267399 -0.08809099 -0.0019219791 -0.07609415 -0.13237673 -0.14441448
-0.39131173 0.18894252 -0.18779838 0.107500084 -0.14056228 -0.02384571 0.3403685 0.12794237
-0.2995195 0.08548848 0.37122187 0.13151632 0.13359453 0.40605277 -0.11298229 0.08810332
-0.28248367 -0.056794487 0.2926954 0.27501196 -0.17765987 -0.2423453 -0.30083162 -0.25332117
-0.31546283 -0.055921044 0.26479945 0.08479555 -0.28531584 -0.24947038 0.114694625 -0.29249302
0.026702818 0.2718387 -0.13929404 0.021739582 0.090842426 -0.030948121 -0.0526114 -0.3524404
-0.177799 -0.21152319 0.4090831 -0.07128275 -0.21978797 0.0085695395 -0.0012997722 0.2937113
0.21093498 0.26335043 -0.33203256 0.047289662 0.15833266 -0.062126618 -0.22775081 0.3473208
00000000: 9a3d 823e add1 abbd 6d08 cebd bf52 eebd
00000010: e7ae a9be 0415 b7be 11a7 2f3e 4df3 22be
00000020: 363a 22be c02b ea3b 86e8 88be 0d69 b4bd
00000030: ebea fbba 40d7 9bbd c48d 07be 64e1 13be
00000040: 035a c8be 267a 413e 384e 40be 0129 dc3d
00000050: 8fef 0fbe 1458 c3bc c844 ae3e 5303 033e
00000060: 9f5a 99be 9614 af3d cb10 be3e 37ac 063e
00000070: 01cd 083e 26e6 cf3e 4263 e7bd 836f b43d
00000080: b3a1 90be 56a1 68bd 2cdc 953e 5ece 8c3e
00000090: 78ec 35be 5e29 78be 9a06 9abe 50b3 81be
000000a0: 5884 a1be 770d 65bd cb93 873e 4aa9 ad3d
000000b0: eb14 92be 2a75 7fbe 04e5 ea3d a5c1 95be
000000c0: debf da3c 712e 8b3e 19a3 0ebe 3517 b23c
000000d0: 980b ba3d ea86 fdbc 0d7f 57bd 1173 b4be
000000e0: f110 36be 8999 58be 5773 d13e b1fc 91bd
000000f0: 1910 61be 4167 0c3c 1e5d aaba 5461 963e
00000100: 57ff 573e ded5 863e 2c00 aabe ceb2 413d
00000110: f521 223e 7b78 7ebd 8237 69be 08d4 b13e

features.3.block.4.weight f4 [9]
1.0124665 0.9390521 1.0162008 0.81996936 0.9620597 1.1027085 1.0130707 0.90104777
0.88010186
00000000: 8198 813f b865 703f de12 823f 83e9 513f
00000010: 8b49 763f 8d25 8d3f 4dac 813f 11ab 663f
00000020: 5b4e 613f

features.3.block.4.bias f4 [9]
0.01967952 0.064723216 -0.01799766 -0.15376565 0.058682237 -0.0018058323 0.043556727 0.09410791
0.09926962
00000000: f236 a13c 9b8d 843d d46f 93bc be74 1dbe
00000010: c95c 703d adb1 ecba 8a68 323d a6bb c03d
00000020: df4d cb3d

features.3.block.4.running_mean f4 [9]
-0.3369518 -0.37184682 0.001524759 0.40443027 -0.22731759 -0.24546286 -0.119759016 0.09834461
0.094028465
00000000: f284 acbe b562 bebe 6cda c73a 7c11 cf3e
00000010: f1c5 68be 9e5a 7bbe 3744 f5bd e668 c93d
00000020: ff91 c03d

features.3.block.4.running_var f4 [9]
0.07808866 0.058820296 0.08984227 0.07288458 0.11383817 0.08549801 0.042442374 0.054337554
0.1703513
00000000: f3ec 9f3d 8ded 703d 39ff b73d 8344 953d
00000010: fd23 e93d 9519 af3d 0ed8 2d3d 0e91 5e3d
00000020: 9270 2e3e

features.4.block.0.weight f4 [9, 1, 3, 3]
-0.14008951 -0.24904387 -0.2877567 -0.17077635 -0.11074843 -0.12124614 0.022972377 -0.21896854
-0.24171038 0.030394308 0.33065292 0.21193188 -0.16461483 -0.06889571 -0.25095093 -0.20061149
-0.027680468 0.12260995 0.23415989 -0.38415766 0.165295 -0.3007052 0.0329524 0.21350402
-0.014247325 0.28819498 -0.32550827 -0.06172756 0.17930457 -0.018905437 -0.122357 -0.19784695
0.19710974 0.26171812 0.15078847 -0.072877474 -0.27884704 0.06992916 0.10171843 -0.24525058
-0.06732381 0.19639249 -0.015424036 -0.03342878 -0.068719134 -0.31136298 -0.4249145 -0.2496351
-0.16421188 0.11694174 -0.04629235 -0.063434936 0.25753596 0.1301465 0.15355594 -0.22521544
-0.22441486 0.12525252 -0.17660582 -0.21160083 -0.011427602 -0.15168785 -0.28493616 0.20656517
0.21386416 0.09162773 -0.12536685 -0.34617168 -0.16921626 0.059398044 0.078851774 -0.059394617
-0.16613421 0.08426894 -0.38165286 0.20542866 -0.13951758 -0.022131758 -0.025332535 0.035250146
-0.07823813
00000000: a073 0fbe 5b05 7fbe d954 93be ffdf 2ebe
00000010: 13d0 e2bd e54f f8bd 9130 bc3c 4a39 60be
00000020: ed82 77be 7cfd f83c 574b a93e ac04 593e
00000030: ca90 28be 3219 8dbd a47c 80be 196d 4dbe
00000040: 26c2 e2bc ed1a fb3d 9cc7 6f3e 50b0 c4be
00000050: 1843 293e 08f6 99be 19f9 063d cca0 5a3e
00000060: 9d6d 69bc 4b8e 933e 05a9 a6be 0ad6 7cbd
00000070: 9e9b 373e 93df 9abc 4f96 fabd 6498 4abe
00000080: 23d7 493e ebff 853e 4b68 1a3e c940 95bd
00000090: 0ac5 8ebe 0537 8f3d c151 d03d f822 7bbe
000000a0: 11e1 89bd 1d1b 493e 19b5 7cbc 9eec 08bd
000000b0: 9ebc 8cbd f86a 9fbe 658e d9be 58a0 7fbe
000000c0: 2927 28be 277f ef3d 0c9d 3dbd 2dea 81bd
000000d0: c1db 833e 2045 053e c53d 1d3e e09e 66be
000000e0: 02cd 65be 3242 003e 28d8 34be e3ad 58be
000000f0: d63a 3bbc 0f54 1bbe 27e3 91be d285 533e
00000100: 35ff 5a3e 52a7 bb3d 2b60 00be 6a3d b1be
00000110: 0747 2dbe 5d4b 733d 0a7d a13d c547 73bd
00000120: 161f 2abe 3295 ac3d 0168 c3be e45b 523e
00000130: b2dd 0ebe a94d b5bc 2d86 cfbc 7562 103d
00000140: 503b a0bd

features.4.block.1.weight f4 [9]
1.0721029 0.9715942 0.9035248 0.9718661 1.0931032 1.0460428 1.0097394 1.0227264
0.90481997
00000000: ab3a 893f 66ba 783f 674d 673f 37cc 783f
00000010: ceea 8b3f bbe4 853f 243f 813f b3e8 823f
00000020: 48a2 673f

features.4.block.1.bias f4 [9]
0.049494036 -0.035702594 -0.105613545 -0.03271336 0.048967976 0.09112267 0.0318514 -0.08242349
-0.08708644
00000000: 42ba 4a3d e23c 12bd ea4b d8bd 72fe 05bd
00000010: a592 483d 869e ba3d 9d76 023d a6cd a8bd
00000020: 605a b2bd

features.4.block.1.running_mean f4 [9]
-0.49470252 -0.0026129645 -0.02736743 0.07304581 -0.12583683 -0.27002618 -0.38728827 -0.045054033
-0.19995756
00000000: a649 fdbe 453e 2bbb a931 e0bc 0b99 953d
00000010: 5fdb 00be df40 8abe a64a c6be 948a 38bd
00000020: adc1 4cbe

features.4.block.1.running_var f4 [9]
0.44683206 0.022226121 0.079842135 0.030645808 0.022955045 0.23120984 0.25836116 0.087599866
0.047778193
00000000: 2cc7 e43e 8e13 b63c 4684 a33d eb0c fb3c
00000010: 380c bc3c 46c2 6c3e ea47 843e 8f67 b33d
00000020: 11b3 433d

features.4.block.3.weight f4 [14, 9, 1, 1]
0.12577917 0.046466846 0.2698831 0.13584134 -0.38280717 -0.29493755 0.30582464 0.26938266
-0.29758978 -0.016674452 -0.33138385 -0.20719302 0.036645655 -0.061361555 -0.0111251 -0.06270001
0.39575177 0.05283746 -0.3162922 0.096061766 -0.024006339 0.019902626 -0.23407982 0.13468479
-0.14326257 -0.10268877 -0.22246209 0.08831451 0.30879965 0.2692818 0.21666248 0.35841843
-0.06425221 -0.072115086 0.15442772 -0.17234401 -0.23919627 -0.12695765 0.0017843075 0.21458195
-0.069286026 -0.21876335 -0.07579363 -0.20886038 -0.1581195 0.18235034 0.036250513 0.2466027
0.40516534 0.0174704 0.115507975 -0.0638574 0.0116776405 -0.078005135 0.092188336 0.12343781
0.22617206 -0.08756877 -0.09025299 -0.060773138 -0.25513142 0.08888288 0.28164345 0.3281371
0.13409095 -0.21776496 -0.087837294 -0.16904074 -0.03462694 0.01216791 -0.26792422 0.010207388
-0.13240448 -0.27539673 -0.29383847 0.31819606 -0.33000025 0.25154948 0.0738295 -0.07306735
0.15625398 -0.087253585 0.16292182 0.18349357 -0.31284815 0.23761985 0.19425535 -0.0005569163
-0.032256227 0.029141212 -0.2689772 -0.03995629 0.279272 0.14449222 0.03627263 -0.31331667
-0.06576783 -0.27673134 0.31432697 -0.22663385 0.040147707 -0.06460067 0.11536257 0.3220395
0.111216515 0.21350877 0.31648704 0.06284989 -0.15307598 -0.17323336 0.08595367 -0.0379337
0.13840835 0.016418478 -0.2613118 0.17904256 0.11091361 0.108251825 0.17579873 0.34218574
0.4222654 -0.018278534 -0.23994924 -0.27956358 -0.16331488 -0.22411634
00000000: 41cc 003e 0554 3e3d 1e2e 8a3e fe19 0b3e
00000010: 4dff c3be 0e02 97be 0c95 9c3e 86ec 893e
00000020: b05d 98be dc98 88bc 25ab a9be 682a 54be
00000030: c119 163d 4156 7bbd 0d46 36bc dd68 80bd
00000040: fa9f ca3e 186c 583d 0df1 a1be 08bc c43d
00000050: f1a8 c4bc d50a a33c 9fb2 6fbe cfea 093e
00000060: 6cb3 12be 7d4e d2bd 1acd 63be 3dde b43d
00000070: fd1a 9e3e 4edf 893e c5dc 5d3e 9f82 b73e
00000080: aa96 83bd 13b1 93bd 4d22 1e3e f37a 30be
00000090: deef 74be 3001 02be 6ddf e93a 5fbb 5b3e
000000a0: d5e5 8dbd 8003 60be b139 9bbd 7fdf 55be
000000b0: 14ea 21be 0cba 3a3e 6b7b 143d 6b85 7c3e
000000c0: d571 cf3e 161e 8f3c 728f ec3d abc7 82bd
000000d0: 9353 3f3c 28c1 9fbd 3dcd bc3d f6cc fc3d
000000e0: a699 673e 4157 b3bd 8fd6 b8bd 41ed 78bd
000000f0: 96a0 82be 3a08 b63d 9233 903e 9601 a83e
00000100: 234f 093e c7fd 5ebe 0ae4 b3bd 0419 2dbe
00000110: fad4 0dbd ea5b 473c 5d2d 89be e33c 273c
00000120: 0a95 07be cd00 8dbe ff71 96be 98ea a23e
00000130: cbf5 a8be 18cb 803e ec33 973d 56a4 95bd
00000140: 0b01 203e 02b2 b2bd fad4 263e bde5 3b3e
00000150: a22d a0be 9e52 733e e0ea 463e 05fe 11ba
00000160: 1b1f 04bd 8db9 ee3c 61b7 89be 35a9 23bd
00000170: bdfc 8e3e c5f5 133e 9c92 143d 0b6b a0be
00000180: 49b1 86bd bbaf 8dbe 77ef a03e b412 68be
00000190: ec71 243d 5b4d 84bd 3643 ec3d 5de2 a43e
000001a0: 7cc5 e33d 0ba2 5a3e 970a a23e 71b7 803d
000001b0: f3bf 1cbe 1664 31be 7a08 b03d 5e60 1bbd
000001c0: ebba 0d3e 0b80 863c a9ca 85be ef56 373e
000001d0: ad26 e33d 22b3 dd3d 9504 343e f832 af3e
000001e0: 2c33 d83e ddbc 95bc 41b5 75be f522 8fbe
000001f0: 043c 27be c17e 65be

features.4.block.4.weight f4 [14]
0.8697022 1.028917 0.9078523 0.9688753 0.6792329 0.97598 0.946208 0.9716897
0.9849325 0.95198035 0.97382176 0.9012161 0.97697765 0.97507155
00000000: cea4 5e3f 8db3 833f 0269 683f 3608 783f
00000010: 35e2 2d3f d3d9 793f b03a 723f a8c0 783f
00000020: 8924 7c3f fcb4 733f 624c 793f 19b6 663f
00000030: 351b 7a3f 4a9e 793f

features.4.block.4.bias f4 [14]
0.11222621 0.015874367 -0.0832733 -0.030065348 -0.22288504 0.027845431 0.06511736 0.053199403
-0.01281822 0.05692839 0.026670542 -0.10605881 0.02674536 0.027055185
00000000: dbd6 e53d f60a 823c 318b aabd 9b4b f6bc
00000010: fa3b 64be 1a1c e43c 405c 853d 9ee7 593d
00000020: 8303 52bc be2d 693d 2e7c da3c 5d35 d9bd
00000030: 1619 db3c d6a2 dd3c

features.4.block.4.running_mean f4 [14]
-0.06545328 -0.05974648 -0.30951548 0.31347185 -0.33367732 0.27309984 0.027386948 -0.036182117
-0.041565552 0.13301566 -0.1479264 0.3165701 -0.064358436 -0.059505485
00000000: 5f0c 86bd bab8 74bd d078 9ebe 627f a03e
00000010: c1d7 aabe bed3 8b3e 985a e03c b333 14bd
00000020: a440 2abd 4235 083e 057a 17be 7a15 a23e
00000030: 5bce 83bd 06bc 73bd

features.4.block.4.running_var f4 [14]
0.1492004 0.11026228 0.033968676 0.16502453 0.051413704 0.10508338 0.053387 0.10834824
0.15847862 0.1013978 0.13780087 0.099847235 0.075216115 0.16987409
00000000: fdc7 183e 31d1 e13d bd22 0b3d 31fc 283e
00000010: 2d97 523d f535 d73d 54ac 5a3d afe5 dd3d
00000020: 3848 223e a6a9 cf3d ac1b 0d3e b57c cc3d
00000030: e80a 9a3d 79f3 2d3e

features.5.block.0.weight f4 [14, 1, 3, 3]
-0.26841274 -0.49759412 -0.45225397 -0.10649482 -0.315193 -0.17908216 0.09232465 0.15988082
-0.093739346 -0.05586097 0.16240731 -0.088760965 -0.08720005 0.23569553 -0.18760346 0.15812413
0.32412544 0.21910538 0.06031575 -0.05042807 0.035204865 0.06553706 0.20120592 0.21076392
0.3245152 0.052348893 0.10214377 -0.23805378 -0.21231405 0.010275464 -0.3162482 0.19059291
-0.033228107 -0.20104057 0.19893862 -0.33301488 -0.12107337 -0.053819746 -0.25774556 -0.18104444
-0.020399287 0.23227909 0.40723246 0.24124174 -0.09755066 -0.15675601 0.2782966 0.18173218
0.009333209 0.07643146 -0.30349156 -0.093832664 0.3280793 -0.019505912 -0.1285696 -0.40904415
-0.1506636 -0.10253202 -0.24735431 -0.042767964 0.020411864 -0.2970488 0.054227404 -0.13044871
-0.29302192 0.13809632 0.27226144 -0.17278138 -0.13680236 -0.16955224 -0.1929633 -0.33031923
-0.023760984 0.120557964 -0.20593286 0.30217132 0.35085824 -0.13988596 -0.269164 0.023961533
-0.105591446 -0.018967854 -0.16752349 0.25176236 -0.18603584 0.27910948 0.025617925 0.082117796
0.28532302 -0.030325323 -0.15070574 -0.0908684 0.20133731 -0.3175612 0.055480514 -0.40280795
0.14037156 0.13308395 0.014256639 0.23178437 0.081751764 0.2944569 -0.12111442 0.015918145
0.21498375 0.33386904 0.18826021 -0.146392 0.21104236 -0.10885836 -0.103669636 -0.30910683
-0.11706229 0.20288141 0.040222332 -0.25929585 0.09730328 -0.15320516 0.21389107 -0.3955151
-0.13197601 -0.4260569 -0.23175035 0.0671438 0.21089488 -0.03856587
00000000: 656d 89be a8c4 febe d58d e7be f519 dabd
00000010: fa60 a1be 5061 37be b514 bd3d ccb7 233e
00000020: 6afa bfbd 79ce 64bd 1a4e 263e 4fc8 b5bd
00000030: f195 b2bd 2b5a 713e 1f1b 40be 4beb 213e
00000040: c5f3 a53e 295d 603e a60d 773d aa8d 4ebd
00000050: fa32 103d 4b38 863d ed08 4e3e 7fd2 573e
00000060: db26 a63e cb6b 563d c130 d13d 5fc4 73be
00000070: db68 59be 6b5a 283c 49eb a1be ca2a 433e
00000080: 321a 08bd 94dd 4dbe 91b6 4b3e ed80 aabe
00000090: 51f5 f7bd 1872 5cbd 3af7 83be b763 39be
000000a0: 681c a7bc 92da 6d3e c680 d03e 1308 773e
000000b0: a4c8 c7bd a684 20be e47c 8e3e 0018 3a3e
000000c0: 51ea 183c 1988 9c3d 3f63 9bbe 572b c0bd
000000d0: 03fa a73e ddca 9fbc c0a7 03be 3c6e d1be
000000e0: 8f47 1abe 4ffc d1bd 734a 7dbe 762d 2fbd
000000f0: c836 a73c c816 98be 8e1d 5e3d 5994 05be
00000100: f806 96be 1f69 0d3e da65 8b3e 9aed 30be
00000110: eb15 0cbe 1a9f 2dbe 2c98 45be 9a1f a9be
00000120: 65a6 c2bc 18e7 f63d 10e0 52be 33b6 9a3e
00000130: b1a3 b33e 443e 0fbe ddcf 89be fa4a c43c
00000140: 5440 d8bd 7962 9bbc 478b 2bbe ffe6 803e
00000150: 2e80 3ebe 70e7 8e3e afdc d13c 602d a83d
00000160: dc15 923e d06c f8bc 9b52 1abe 3619 babd
00000170: 5e2b 4e3e 6297 a2be 893f 633d d83c cebe
00000180: 90bd 0f3e 2947 083e ae94 693c e258 6d3e
00000190: 786d a73d 0ec3 963e d60a f8bd c566 823c
000001a0: b324 5c3e e2f0 aa3e 49c7 403e c9e7 15be
000001b0: 7d1b 583e 22f1 debd bf50 d4bd 4043 9ebe
000001c0: 5bbe efbd 25c0 4f3e 2cc0 243d 6dc2 84be
000001d0: f146 c73d d0e1 1cbe 4306 5b3e f580 cabe
000001e0: b824 07be 2124 dabe f74f 6dbe b082 893d
000001f0: d4f4 573e 3ff7 1dbd

features.5.block.1.weight f4 [14]
1.1063485 0.9389593 1.0755028 1.0088677 0.93219143 0.8688343 1.021506 1.1813363
1.0140487 0.9164785 0.80386645 1.0585382 0.9105436 0.8377373
00000000: d49c 8d3f a35f 703f 13aa 893f 9422 813f
00000010: 19a4 6e3f ed6b 5e3f b5c0 823f 0736 973f
00000020: 59cc 813f 569e 6a3f 31ca 4d3f 2e7e 873f
00000030: 6319 693f f475 563f

features.5.block.1.bias f4 [14]
0.09598461 0.030560555 0.058381192 0.05947131 -0.099870525 0.00016487068 0.049539223 0.2337988
0.004024399 0.066706344 -0.09168662 0.016019274 0.020474344 -0.08348749
00000000: 9493 c43d 215a fa3c 1e21 6f3d 3098 733d
00000010: eb88 ccbd 23e1 2c39 a4e9 4a3d f468 6f3e
00000020: 1bdf 833b 569d 883d 32c6 bbbd da3a 833c
00000030: d0b9 a73c 7dfb aabd

features.5.block.1.running_mean f4 [14]
-0.67477053 0.20040396 0.25193447 -0.29555026 0.021151688 0.08881428 -0.507403 -0.4117004
0.032718346 0.1595979 -0.16811971 0.31298372 -0.14970498 -0.29636797
00000000: c3bd 2cbf b236 4d3e 8efd 803e 5d52 97be
00000010: 4e46 ad3c 43e4 b53d 2ae5 01bf 65ca d2be
00000020: ac03 063d a26d 233e 9327 2cbe 673f a03e
00000030: 434c 19be 8bbd 97be

features.5.block.1.running_var f4 [14]
0.30736604 0.1641601 0.1034374 0.22476277 0.06315846 0.17164649 0.28306785 0.13633214
0.09086281 0.087919384 0.131543 0.1740566 0.07754982 0.35897595
00000000: 155f 9d3e 9619 283e fdd6 d33d 3628 663e
00000010: 3959 813d 19c4 2f3e 45ee 903e a79a 0b3e
00000020: 4816 ba3d 140f b43d 35b3 063e e53b 323e
00000030: 71d2 9e3d b2cb b73e

features.5.block.3.weight f4 [19, 14, 1, 1]
0.2111623 0.014183488 0.19460167 0.069492936 0.13793005 -0.19008031 0.33003905 0.22862938
-0.028192721 -0.11225508 -0.18091816 0.068295896 -0.32547185 0.1025307 0.07540898 -0.15799905
0.09717091 -0.16301364 0.11895795 0.12402146 -0.4145597 0.28973967 0.2115344 0.06228827
-0.24824695 0.019794514 -0.049843952 -0.10867703 0.09020879 0.11372064 0.32380527 -0.29776996
0.06406525 -0.05471016 -0.25082496 -0.18104361 -0.116155416 0.13377215 -0.23400877 -0.19655342
0.071665466 0.10221554 0.29645604 -0.12041431 -0.21782021 0.09798958 0.17515022 0.13983282
0.0353641 0.20587812 0.2638892 -0.06877998 -0.12603395 0.25684902 -0.13263111 -0.14685373
0.33677745 0.091626674 -0.038294025 -0.06501282 -0.060952004 0.14621755 -0.16531932 -0.031177942
0.05294947 -0.1630445 0.04654633 -0.22893393 -0.069978945 -0.12564617 -0.27404773 -0.21449393
0.25953388 0.11708743 -0.18491894 -0.13576722 0.25402245 0.013464875 0.019790241 -0.11423215
-0.05411394 -0.02527889 -0.072117016 -0.02060102 0.08813516 -0.0049624257 -0.07798301 0.052121595
-0.11231763 0.06511084 0.08173951 -0.27206707 -0.29966027 0.0627815 0.07328841 -0.08316677
0.19740231 -0.12003205 0.16088228 0.12540664 -0.20615181 0.1336169 -0.15110613 -0.1046372
-0.1361579 -0.2891762 0.16650732 -0.15406655 0.14067054 -0.24548274 0.16842017 -0.11292208
-0.24318022 0.14585759 0.18653022 0.21454115 -0.07083502 -0.057330087 0.09909291 0.09960763
0.086207196 0.15514241 0.019907616 0.18500666 0.076743424 -0.006681799 0.059259247 0.061526
0.205946 -0.07550617 -0.06506891 0.033787694 0.12985894 0.19987933 -0.11048286 0.26779115
-0.057477526 0.24009173 0.06414837 -0.15302579 -0.21598592 -0.2600561 0.15052028 -0.11076045
-0.04655728 -0.04293625 -0.032180563 -0.042071328 -0.24521153 -0.21513657 -0.20405957 -0.12211581
-0.031297475 0.006428958 -0.104766086 0.10125554 0.33021578 0.15599795 -0.028385276 -0.19465508
0.15783978 -0.051573835 0.22383943 0.15912531 0.11417599 0.14319558 0.26706702 0.014730035
-0.220251 0.19347633 -0.08822345 -0.21856214 0.24748157 0.08308315 0.046281308 0.19210052
-0.27302012 -0.0513092 0.153482 0.14747971 -0.0066511384 -0.16647553 -0.14186706 0.22152457
-0.0031495981 0.2170328 0.017124314 0.04421287 0.17105052 -0.00262896 0.054321535 0.17684256
0.27987602 0.20007232 -0.040189907 -0.12611987 0.092707045 0.13604566 -0.029545281 -0.08008281
0.08805975 0.11472376 0.026112776 0.07407237 -0.11737086 -0.1136047 -0.18029548 0.30861235
0.08696936 0.0856792 -0.0054295477 0.03181397 0.091539785 -0.28498626 -0.0678821 -0.14068678
-0.17117041 -0.1880816 0.25447458 0.13611667 0.02633422 0.3152572 -0.09668282 0.05065354
0.15844908 -0.041829575 -0.13947988 -0.14516202 0.032991745 -0.16959651 0.065317065 0.3516927
-0.032620896 -0.090394296 0.06974725 -0.001329116 -0.055974696 0.1763919 -0.1416647 -0.20904513
-0.12541187 0.18262778 -0.17676452 -0.1744772 0.034929115 -0.0016504083 -0.05117636 -0.25361922
0.0086423075 -0.13855036 -0.105135605 -0.08478927 0.05714616 -0.18158858 -0.20824528 -0.16248518
00000000: ee3a 583e dc61 683c a945 473e 5052 8e3d
00000010: 893d 0d3e 6aa4 42be e1fa a83e d21d 6a3e
00000020: 6cf4 e6bc fee5 e5bd 9c42 39be b8de 8b3d
00000030: 3fa4 a6be 9efb d13d 0670 9a3d 81ca 21be
00000040: 8b01 c73d 0ced 26be 3aa0 f33d f7fe fd3d
00000050: 2b41 d4be c258 943e 799c 583e fc21 7f3d
00000060: 7334 7ebe 1b28 a23c 2c29 4cbd 1092 debd
00000070: 63bf b83d 5ee6 e83d cec9 a53e 4e75 98be
00000080: a434 833d c317 60bd 216c 80be 7f63 39be
00000090: e4e2 edbd 91fb 083e ff9f 6fbe 4d45 49be
000000a0: 58c5 923d 6256 d13d 16c9 973e c79b f6bd
000000b0: 430c 5fbe c3ae c83d 945a 333e 5630 0f3e
000000c0: f2d9 103d b7d1 523e 7c1c 873e 85dc 8cbd
000000d0: 0b0f 01be b781 833e 73d0 07be d360 16be
000000e0: 186e ac3e c4a6 bb3d 32da 1cbd 7125 85bd
000000f0: cfa8 79bd 0eba 153e 7849 29be e268 ffbc
00000100: 8be1 583d 23f5 26be 5da7 3e3d a86d 6abe
00000110: 1f51 8fbd 64a9 00be fc4f 8cbe 4ca4 5bbe
00000120: a0e1 843e 89cb ef3d 645b 3dbe 9006 0bbe
00000130: 3b0f 823e c79b 5c3c 251f a23c 8cf2 e9bd
00000140: 94a6 5dbd ad15 cfbc 16b2 93bd 78c3 a8bc
00000150: 3580 b43d d89b a2bb 8eb5 9fbd 747d 553d
00000160: c906 e6bd d558 853d 0b67 a73d 604c 8bbe
00000170: 126d 99be 9693 803d 3c18 963d 5753 aabd
00000180: d523 4a3e 5dd3 f5bd 53be 243e 996a 003e
00000190: 7619 53be ded2 083e 91bb 1abe 074c d6bd
000001a0: fa6c 0bbe e70e 94be e580 2a3e 9fc3 1dbe
000001b0: f00b 103e d45f 7bbe 5676 2c3e b143 e7bd
000001c0: 3c04 79be b15b 153e c701 3f3e adb0 5b3e
000001d0: f311 91bd f4d2 6abd 39f1 ca3d 16ff cb3d
000001e0: 668d b03d a7dd 1e3e 4c15 a33c 6372 3d3e
000001f0: a82b 9d3d fef2 dabb d3b9 723d b002 7c3d
00000200: 82e3 523e fba2 9abd d942 85bd f764 0a3d
00000210: bef9 043e 2bad 4c3e d644 e2bd ec1b 893e
00000220: 8e6d 6bbd 9bda 753e 3860 833d cbb2 1cbe
00000230: 6a2b 5dbe 1326 85be fd21 1a3e 60d6 e2bd
00000240: d9b2 3ebd ecdd 2fbd c4cf 03bd fc52 2cbd
00000250: bb18 7bbe c34c 5cbe fef4 50be db17 fabd
00000260: c831 00bd 02aa d23b 9a8f d6bd 115f cf3d
00000270: 0b12 a93e edbd 1f3e 3d88 e8bc a953 47be
00000280: c0a0 213e 163f 53bd 2a36 653e bff1 223e
00000290: 1ad5 e93d dda1 123e 02bd 883e 3f56 713c
000002a0: 7a89 61be a91e 463e 7fae b4bd c1ce 5fbe
000002b0: cf6b 7d3e 8027 aa3d 7891 3d3d 00b6 443e
000002c0: 4bc9 8bbe 9829 52bd 632a 1d3e ec04 173e
000002d0: cbf1 d9bb 9078 2abe 9945 11be 56d7 623e
000002e0: 7d69 4ebb d93d 5e3e 4a48 8c3c 8e18 353d
000002f0: de27 2f3e a14a 2cbb 4280 5e3d 3716 353e
00000300: e94b 8f3e c2df 4c3e 2c9e 24bd 9125 01be
00000310: 31dd bd3d 8e4f 0b3e f208 f2bc 7502 a4bd
00000320: ac58 b43d 4af4 ea3d 76ea d53c 41b3 973d
00000330: 2260 f0bd 95a9 e8bd 619f 38be 7002 9e3e
00000340: fe1c b23d 9478 af3d 59ea b1bb 5e4f 023d
00000350: 3679 bb3d b8e9 91be c505 8bbd 3210 10be
00000360: 4c47 2fbe 7798 40be 7e4a 823e 2b62 0b3e
00000370: ddba d73c 6469 a13e a401 c6bd 167a 4f3d
00000380: 7a40 223e 7d55 2bbd d0d3 0ebe 5aa5 14be
00000390: 5a22 073d b5aa 2dbe f4c4 853d 1111 b43e
000003a0: 7d9d 05bd a520 b9bd a5d7 8e3d bc35 aeba
000003b0: b945 65bd 14a0 343e 8d10 11be ed0f 56be
000003c0: f86b 00be c702 3b3e c201 35be 27aa 32be
000003d0: d511 0f3d 8352 d8ba 4e9e 51bd 61da 81be
000003e0: 7798 0d3c 25e0 0dbe 5651 d7bd ffa5 adbd
000003f0: 1812 6a3d 5bf2 39be 403e 55be 8462 26be

features.5.block.4.weight f4 [19]
0.738269 0.9808443 1.0408614 0.9928723 0.7907761 0.9649966 1.0755614 0.9500806
1.0088258 0.92845005 0.8658549 0.97935504 0.85074115 0.97132355 0.82790524 0.9580698
0.97354245 0.87638825 0.8996463
00000000: 32ff 3c3f 9d18 7b3f f23a 853f e12c 7e3f
00000010: 4d70 4a3f 040a 773f ffab 893f 7b38 733f
00000020: 3421 813f e7ae 6d3f aba8 5d3f 03b7 7a3f
00000030: 2cca 593f a9a8 783f 99f1 533f 1044 753f
00000040: 143a 793f fb5a 603f 384f 663f

features.5.block.4.bias f4 [19]
0.20661516 -0.04283824 -0.0108609 -0.032699183 0.1825506 0.042116564 0.010400974 0.047729783
-0.018338323 -0.07118432 0.08856823 0.042620037 0.13176765 -0.056529414 0.14305753 0.049954914
0.016949266 -0.11031231 0.096620396
00000000: ed92 533e 2677 2fbd ebf1 31bc 94ef 05bd
00000010: 8bee 3a3e 6b82 2c3d d968 2a3c 4e80 433d
00000020: 403a 96bc 16c9 91bd 4363 b53d 5992 2e3d
00000030: 19ee 063e 638b 67bd ac7d 123e 869d 4c3d
00000040: 30d9 8a3c 6ceb e1bd eae0 c53d

features.5.block.4.running_mean f4 [19]
0.34704152 0.026838753 -0.20034263 0.33415753 -0.08949916 -0.08887549 -0.16455251 -0.26218972
0.35555598 0.42636797 -0.4889713 0.47107378 -0.0040140357 0.3525431 0.20932364 -0.085474014
0.16364282 -0.40429437 0.09365767
00000000: 6daf b13e f2dc db3c 9e26 4dbe b216 ab3e
00000010: 564b b7bd 5a04 b6bd 7480 28be bb3d 86be
00000020: 6f0b b63e e74c da3e 725a fabe 9530 f13e
00000030: 2c88 83bb 8780 b43e f058 563e 000d afbd
00000040: fc91 273e acff cebe 98cf bf3d

features.5.block.4.running_var f4 [19]
0.12366654 0.23743525 0.16298896 0.24889009 0.119136445 0.17552675 0.14584513 0.20978935
0.13579181 0.18431033 0.19758193 0.19547324 0.18337874 0.12784202 0.14263846 0.16731243
0.101629965 0.22077048 0.14909106
00000000: e244 fd3d 3a22 733e 94e6 263e 0bdd 7e3e
00000010: cffd f33d 49bd 333e 6d58 153e 05d3 563e
00000020: 020d 0b3e d9bb 3c3e eb52 4a3e 232a 483e
00000030: a3c7 3b3e 05e9 023e d10f 123e f353 2b3e
00000040: 5f23 d03d a811 623e 54ab 183e

features.6.block.0.weight f4 [19, 1, 3, 3]
-0.06427629 -0.3018731 -0.023968717 -0.31292328 -0.2750276 -0.21097891 0.16193183 0.031444408
-0.05764846 0.14278978 0.0634978 0.2506495 0.10924149 0.12326966 0.008745987 0.25180033
0.086472176 -0.024936447 0.21172965 0.42364028 0.3193186 0.082619786 -0.0067640985 0.21076682
0.2437908 -0.22118981 0.033122912 -0.32446706 0.04501169 0.048217796 -0.06327124 0.0404381
0.17323914 -0.05520493 -0.23828016 0.26366237 -0.18763131 -0.21141246 -0.058378324 -0.090857506
-0.35938612 -0.02206838 -0.08092006 -0.2459629 -0.031317994 -0.15363374 -0.22004057 -0.19370906
-0.021598378 -0.21074396 -0.114220686 0.04705818 -0.22104698 -0.17364413 0.0063495357 0.037012756
0.20221588 -0.25368157 0.053875733 0.10901371 -0.0045455224 -0.4171535 -0.17127769 -0.5050853
-0.29192194 0.036332015 -0.07319253 0.059779968 -0.174 0.02104259 -0.18939506 0.041385315
-0.18998612 -0.111934826 -0.34545943 0.015853524 0.26169217 0.17013854 -0.18725793 -0.009669975
-0.04937987 -0.25797305 0.14302607 -0.024975836 0.12533431 -0.040992215 0.009259434 0.16055498
0.2209135 0.18915655 -0.23835258 0.17911243 0.039572943 -0.27881643 -0.2147336 0.3000974
-0.13369234 -0.20780176 -0.09908482 -0.19084175 -0.34792924 -0.40233433 0.10672234 0.19741248
0.15531108 -0.3151121 0.069700345 -0.38137397 0.124193445 0.19677947 0.15873429 0.2684932
0.28472537 0.13592955 0.15335926 -0.043744247 0.17174602 -0.035300624 -0.065553084 -0.24829243
-0.050683673 -0.26363283 -0.10754754 -0.10211378 -0.39589503 -0.06425727 0.24061784 0.37495774
0.32961702 0.0013261598 -0.08598543 0.2542206 0.11226288 -0.16699263 0.11049251 0.25570512
0.071010716 -0.102007285 0.25653988 0.32188627 0.24938256 -0.18898848 0.22106175 -0.10694186
0.24929091 -0.112202466 0.013861768 0.1833062 0.16579789 -0.095857784 0.2866436 0.010773801
-0.2903273 -0.02108682 0.14390609 -0.049740087 0.16892284 -0.059666526 0.2340859 0.34627932
0.27142876 0.058655757 -0.12768194 0.11683182 -0.123749875 0.31857213 -0.15099652 0.16099611
0.44141725 0.30912787 0.20650007
00000000: 4aa3 83bd 1c8f 9abe 0b5a c4bc 7b37 a0be
00000010: 6bd0 8cbe db0a 58be 75d1 253e dacb 003d
00000020: cb20 6cbd 7c37 123e 220b 823d 2255 803e
00000030: 01ba df3d ce74 fc3d 544b 0f3c f9eb 803e
00000040: 5318 b13d 8547 ccbc a8cf 583e 61e7 d83e
00000050: ba7d a33e 9034 a93d 5fa5 ddbb 42d3 573e
00000060: 4ca4 793e 957f 62be e4ab 073d 8c20 a6be
00000070: 2e5e 383d 0680 453d 5a94 81bd 6ca2 253d
00000080: 9a65 313e 911e 62bd b7ff 73be c1fe 863e
00000090: 6c22 40be 827c 58be 1c1e 6fbd 8013 babd
000000a0: 7501 b8be bfc8 b4bc 6bb9 a5bd b3dd 7bbe
000000b0: 4c47 00bd 2a52 1dbe 5152 61be ab5b 46be
000000c0: 15ef b0bc 44cd 57be 89ec e9bd 14c0 403d
000000d0: 245a 62be c4cf 31be c40f d03b b09a 173d
000000e0: ae11 4f3e 8de2 81be cdac 5c3d 9442 df3d
000000f0: 9bf2 94bb 2595 d5be 6b63 2fbe 454d 01bf
00000100: cb76 95be e1d0 143d f7e5 95bd d7db 743d
00000110: 0e2d 32be 8261 ac3c c7f0 41be a683 293d
00000120: b98b 42be 163e e5bd 0fe0 b0be 40df 813c
00000130: 84fc 853e cc38 2e3e 8bc0 3fbe d16e 1ebc
00000140: 8c42 4abd 0b15 84be 6d75 123e 209a ccbc
00000150: a357 003e 74e7 27bd e2b4 173c 8668 243e
00000160: 2637 623e 41b2 413e b312 74be 4069 373e
00000170: 3d17 223d 07c1 8ebe 20e3 5bbe 5ea6 993e
00000180: a5e6 08be fcc9 54be fbec cabd 056c 43be
00000190: c823 b2be c4fe cdbe 3e91 da3d 7f26 4a3e
000001a0: de09 1f3e 6056 a1be 0ebf 8e3d 7343 c3be
000001b0: 2259 fe3d 8f80 493e 3e8b 223e f177 893e
000001c0: 86c7 913e 1e31 0b3e 360a 1d3e 2b2d 33bd
000001d0: 30de 2f3e 6397 10bd b240 86bd 5f40 7ebe
000001e0: af99 4fbd e2fa 86be e241 dcbd 0821 d1bd
000001f0: c1b2 cabe 5199 83bd 8664 763e 76fa bf3e
00000200: 90c3 a83e 8ad2 ad3a 2119 b0bd 3429 823e
00000210: 15ea e53d 1e00 2bbe e649 e23d c8eb 823e
00000220: 116e 913d 32e9 d0bd 3259 833e 47ce a43e
00000230: 245e 7f3e 3286 41be 035e 623e 5504 dbbd
00000240: 1e46 7f3e 68ca e5bd 781c 633c 9fb4 3b3e
00000250: ecc6 293e 1651 c4bd f3c2 923e 9984 303c
00000260: c8a5 94be 44be acbc 1e5c 133e 43bc 4bbd
00000270: 1cfa 2c3e e364 74bd 37b4 6f3e 864b b13e
00000280: b6f8 8a3e 0541 703d 0ebf 02be 8545 ef3d
00000290: 9370 fdbd e31b a33e d59e 1abe 2adc 243e
000002a0: 7101 e23e 0246 9e3e c174 533e

features.6.block.1.weight f4 [19]
1.0695 0.9963297 0.8678701 0.84418344 1.1136807 1.1031133 0.8924352 1.016173
0.8783647 0.87179965 0.8780184 1.009922 1.0837525 0.98141164 0.903606 0.9300728
1.0197476 1.0667813 0.9831218
00000000: 60e5 883f 770f 7f3f bc2c 5e3f 681c 583f
00000010: 178d 8e3f d132 8d3f a276 643f f511 823f
00000020: 82dc 603f 432e 5f3f d0c5 603f 2045 813f
00000030: 67b8 8a3f cb3d 7b3f b952 673f 4019 6e3f
00000040: 1787 823f 4a8c 883f dfad 7b3f

features.6.block.1.bias f4 [19]
0.08020235 -0.02025523 -0.119704224 -0.09960469 0.11489754 0.12181153 0.034173366 0.10354096
-0.0995686 -0.023160731 -0.028171446 0.050285246 0.18453339 0.045679104 0.02668587 0.05642166
0.055075943 0.069635004 0.13114949
00000000: 2141 a43d 4cee a5bc 7d27 f5bd 8bfd cbbd
00000010: 674f eb3d 5378 f93d 5ff9 0b3d 480d d43d
00000020: 9fea cbbd 93bb bdbc cec7 e6bc e7f7 4d3d
00000030: 52f6 3c3e 031a 3b3d 539c da3c 661a 673d
00000040: 5097 613d cc9c 8e3d 0d4c 063e

features.6.block.1.running_mean f4 [19]
-0.38583902 0.35096034 0.4317931 -0.012507201 -0.48393166 -0.47630075 -0.19076999 -0.37129596
-0.10443387 0.17540418 -0.2382396 -0.29828742 0.49013603 -0.39920422 0.39863107 0.37063217
0.13104795 0.2818247 0.43387347
00000000: b18c c5be 13b1 b33e fc13 dd3e 01eb 4cbc
00000010: e4c5 f7be b1dd f3be 3559 43be 811a bebe
00000020: 6de1 d5bd 279d 333e 15f5 73be 21b9 98be
00000030: 1cf3 fa3e 7f64 ccbe 5f19 cc3e 80c3 bd3e
00000040: 6f31 063e 544b 903e aa24 de3e

features.6.block.1.running_var f4 [19]
0.2070307 0.1784441 0.4884084 0.07568292 0.21972853 0.2301794 0.065484926 0.1239585
0.15385918 0.106684566 0.05744447 0.4278943 0.43645197 0.46585953 0.3891271 0.34216756
0.09729047 0.091063544 0.31506923
00000000: dbff 533e 0dba 363e aa10 fa3e a6ff 9a3d
00000010: 8400 613e 26b4 6b3e f61c 863d f4dd fd3d
00000020: 438d 1d3e 707d da3d e44a 6b3d f614 db3e
00000030: a276 df3e 2485 ee3e ab3b c73e 9630 af3e
00000040: 3a40 c73d 867f ba3d c150 a13e

features.6.block.3.weight f4 [28, 19, 1, 1]
-0.24429515 0.16218972 -0.050541803 -0.19655009 0.29278207 -0.17737268 -0.02932343 0.14903636
-0.14841443 -0.1666423 -0.07901338 0.012164951 0.11588541 -0.26806754 0.018967506 -0.02084742
-0.12480847 -0.29909244 0.06683773 -0.07089281 -0.262403 0.36028108 -0.006014134 -0.12936015
-0.007118781 0.048499297 0.20821194 0.16471016 -0.1338371 0.1198941 0.102338985 0.03688577
0.2632255 0.13871348 -0.105578505 0.1754049 -0.10767921 -0.012676022 -0.25844204 -0.045877386
-0.1424344 0.06125826 -0.08186676 0.18279293 0.119229235 0.053986147 0.014344362 -0.056350634
0.17373557 -0.0030205238 -0.10416435 0.19259717 -0.10817227 -0.16375628 0.0575015 -0.05717205
0.07444291 0.047925763 -0.040566597 0.03735778 -0.0418383 0.17947349 0.23631473 -0.16974026
-0.24598242 -0.1827744 -0.09686079 -0.10263241 -0.02773602 -0.19192326 -0.083333865 -0.13344404
-0.2416961 0.1622474 -0.06636593 -0.11782205 0.02406393 -0.04758401 0.04087519 0.09248127
0.2968177 -0.2638944 -0.056180235 0.17465991 -0.16834308 0.21152976 0.1410075 -0.084461965
0.11356876 -0.25952816 -0.18367311 0.06770315 0.047943115 -0.28439477 -0.012641509 -0.2367951
0.16304019 0.20600289 -0.07558007 -0.25984547 0.09597283 -0.00905044 0.03729859 -0.008230664
0.04126224 -0.05270379 -0.0848045 0.18338628 -0.075316265 0.11342763 -0.09241734 0.01246288
-0.120813936 -0.08157902 -0.08801182 -0.141284 -0.005536037 -0.1253292 -0.28949243 -0.05812525
0.06646937 -0.2101953 0.009498356 -0.20823102 -0.15764463 0.16898097 -0.11631543 0.13556218
0.09456631 -0.079477854 0.014578164 0.10735622 -0.14254615 -0.18201895 0.20865119 0.073427334
-0.10344481 0.05912662 -0.022805871 -0.15011871 -0.006689562 -0.009861999 -0.09844824 0.0715182
-0.2081815 0.25153232 0.056030795 0.0679262 0.034245025 0.07416822 -0.34710798 -0.04531835
-0.024165425 -0.19057825 -0.13288163 0.05390691 0.2576324 -0.52848566 0.15471987 0.15114243
0.14523251 0.0021765067 0.106573775 -0.2415088 0.05343134 0.0103019485 -0.19779395 -0.14181772
0.052223787 -0.026559046 -0.04465218 0.14027004 0.0352435 -0.03642111 -0.08491127 0.20227893
0.16349779 -0.11870165 0.001770791 0.0074715232 0.076957114 0.14720418 0.008754447 -0.13490035
0.14331616 -0.07464341 -0.13286904 0.038135193 -0.26491302 0.03677383 -0.17497498 0.09767583
-0.0932183 0.13004267 -0.10214236 -0.31914982 0.12363887 0.15669891 -0.1583966 0.07460392
-0.07138612 0.018559838 0.2196837 0.020989524 -0.093930826 0.16757196 0.104249574 -0.06379977
0.17074405 0.075162865 0.020761726 -0.040204134 0.05886135 -0.20563962 0.17608935 0.11816489
-0.17611596 0.045011453 -0.056388546 0.071513414 -0.0077500776 -0.03697531 0.11671244 -0.039208308
0.04938373 -0.06414646 -0.29890037 0.13331519 -0.004650454 -0.047505654 -0.021523666 -0.01958639
-0.25890496 0.06437791 0.026047604 -0.19992109 -0.16772811 -0.10036539 0.16200355 0.134456
0.0043256185 0.23380853 -0.10726907 -0.2564877 0.07016399 0.17971277 0.20981567 -0.029063666
0.062334005 0.13717976 0.15969855 -0.24977584 0.19266897 -0.10332899 0.13327327 -0.05392373
00000000: 8228 7abe 1015 263e ec04 4fbd 6d44 49be
00000010: 88e7 953e 2fa1 35be b137 f0bc fd9c 183e
00000020: f4f9 17be 47a4 2abe c4d1 a1bd 814f 473c
00000030: 5455 ed3d 2640 89be be61 9b3c 35c8 aabc
00000040: 959b ffbd a522 99be 38e2 883d 4030 91bd
00000050: b059 86be c376 b83e 3612 c5bb fd76 04be
00000060: aa44 e9bb 33a7 463d 8335 553e c8a9 283e
00000070: 980c 09be 0a8b f53d 1a97 d13d 8815 173d
00000080: 7ec5 863e e80a 0e3e 8b39 d8bd 589d 333e
00000090: eb86 dcbd 17af 4fbc 8452 84be ede9 3bbd
000000a0: 53da 11be f1e9 7a3d c3a9 a7bd 122e 3b3e
000000b0: 752e f43d 9420 5d3d 9d04 6b3c eccf 66bd
000000c0: bde7 313e fbf3 45bb 1e54 d5bd 3138 453e
000000d0: 6c89 ddbd baaf 27be b186 6b3d 3d2d 6abd
000000e0: 8675 983d ce4d 443d 2929 26bd 7904 193d
000000f0: a35e 2bbd e6c7 373e 7dfc 713e 64d0 2dbe
00000100: d1e2 7bbe 3629 3bbe f35e c6bd f130 d2bd
00000110: a636 e3bc 8887 44be f2aa aabd 8ea5 08be
00000120: 2f7f 77be 2f24 263e dcea 87bd b04c f1bd
00000130: b821 c53c 73e7 42bd be6c 273d d266 bd3d
00000140: 7df8 973e 2b1d 87be 3f1d 66bd 0cda 323e
00000150: 2162 2cbe 429b 583e 4564 103e 65fa acbd
00000160: bd96 e83d e0e0 84be ce14 3cbe f3a7 8a3d
00000170: 0060 443d 319c 91be 551e 4fbc 6a7a 72be
00000180: 02f4 263e 6cf2 523e b9c9 9abd 770a 85be
00000190: 678d c43d 4c48 14bc 68c6 183d e8d9 06bc
000001a0: 9802 293d eedf 57bd fbad adbd 9dc9 3b3e
000001b0: 6a3f 9abd bf4c e83d 4d45 bdbd 1c31 4c3c
000001c0: 4c6d f7bd e712 a7bd 8b3f b4bd c1ac 10be
000001d0: a567 b5bb 4c56 00be 5a38 94be be14 6ebd
000001e0: 1821 883d 703d 57be fe9e 1b3c 833a 55be
000001f0: 986d 21be 5909 2d3e c936 eebd d0d0 0a3e
00000200: fbab c13d 49c5 a2bd 40d9 6e3c 94dd db3d
00000210: 9ef7 11be 2d63 3abe a8a8 553e 1261 963d
00000220: dfda d3bd c12e 723d 61d3 babc b8b8 19be
00000230: 1d34 dbbb 3994 21bc 3b9f c9bd 2278 923d
00000240: 882d 55be d8c8 803e 8c80 653d e41c 8b3d
00000250: 8344 0c3d 82e5 973d 23b8 b1be bc9f 39bd
00000260: 92f6 c5bc f226 43be 1f12 08be 7ecd 5c3d
00000270: 65e8 833e d64a 07bf e36e 1e3e 15c5 1a3e
00000280: d5b7 143e b9a3 0e3b 5a43 da3d 154e 77be
00000290: d2da 5a3d 81c9 283c 7f8a 4abe aa38 11be
000002a0: 9ce8 553d 5b92 d9bc 34e5 36bd f3a2 0f3e
000002b0: 7d5b 103d 4d2e 15bd f6e5 adbd 3522 4f3e
000002c0: f76b 273e da19 f3bd e319 e83a aed3 f43b
000002d0: b19b 9d3d b1bc 163e d06e 0f3c 5123 0abe
000002e0: 79c1 123e a5de 98bd d20e 08be a633 1c3d
000002f0: aea2 87be 28a0 163d a42c 33be 440a c83d
00000300: 3ce9 bebd e829 053e 0330 d1bd 9b67 a3be
00000310: 6036 fd3d ae75 203e b832 22be f1c9 983d
00000320: e332 92bd cd0a 983c c4f4 603e 39f2 ab3c
00000330: ce5e c0bd fc97 2b3e cd80 d53d 74a9 82bd
00000340: 87d7 2e3e fdee 993d 7f14 aa3c 17ad 24bd
00000350: 9918 713d 3193 52be c450 343e 6f00 f23d
00000360: be57 34be ee5d 383d adf7 66bd a075 923d
00000370: 5df4 fdbb 6c73 17bd ef06 ef3d e498 20bd
00000380: 9846 4a3d 385f 83bd 7809 99be c783 083e
00000390: d662 98bb 4a95 42bd 6652 b0bc a373 a0bc
000003a0: 318f 84be 91d8 833d c961 d53c 1db8 4cbe
000003b0: ebc0 2bbe 5f8c cdbd 42e4 253e d5ae 093e
000003c0: ebbd 8d3b 816b 6f3e e3af dbbd 5b52 83be
000003d0: 23b2 8f3d a006 383e ebd9 563e ed16 eebc
000003e0: f151 7f3d da78 0c3e 0488 233e 3dc5 7fbe
000003f0: 044b 453e 269e d3bd ca78 083e 21df 5cbd

features.6.block.4.weight f4 [28]
0.894556 0.9115844 0.9342986 0.90961677 0.8166547 0.7271643 0.79299515 0.7579966
0.7072351 0.90299326 0.99309236 0.83737224 0.92248774 0.96115553 1.02868 0.89154863
0.8539485 0.97756034 0.9152804 0.9225768 0.96730465 1.0004578 0.91607445 0.99277407
0.6011576 0.96421826 0.9607272 0.8222585
00000000: 9f01 653f 985d 693f 312e 6f3f a5dc 683f
00000010: 4810 513f 7127 3a3f bb01 4b3f 110c 423f
00000020: 5c0d 353f 912a 673f 4d3b 7e3f 075e 563f
00000030: 2828 6c3f 4a0e 763f c9ab 833f 883c 643f
00000040: 5e9c 5a3f 6541 7a3f d14f 6a3f fe2d 6c3f
00000050: 47a1 773f 000f 803f db83 6a3f 7126 7e3f
00000060: 77e5 193f 02d7 763f 38f2 753f 887f 523f

features.6.block.4.bias f4 [28]
0.08653781 0.06585643 -0.056628272 0.09916099 0.1475822 0.22734496 0.18024966 0.1976854
0.22321515 0.08904005 0.00339652 0.16259308 -0.090354845 -0.025257437 -0.005107878 0.104551256
0.12754485 -0.028204724 0.080245174 0.07823924 -0.048380222 0.052343003 0.07419155 -0.04420954
0.32534376 -0.04681992 0.054272346 0.15526794
00000000: bc3a b13d bcdf 863d 0cf3 67bd eb14 cb3d
00000010: ca1f 173e 1ecd 683e 5e93 383e 0b6e 4a3e
00000020: 8392 643e a15a b63d 2698 5e3b cd7e 263e
00000030: f60b b9bd afe8 cebc fc5f a7bb f81e d63d
00000040: 1e9b 023e 980d e7bc 9557 a43d e53b a03d
00000050: 572a 46bd 9e65 563d bdf1 973d 1015 35bd
00000060: 7593 a63e 3fc6 3fbd ae4c 5e3d 8ffe 1e3e

features.6.block.4.running_mean f4 [28]
-0.29896495 0.20832299 -0.027343716 -0.32895586 -0.04784822 -0.14867057 -0.44675907 -0.121942095
-0.23393123 0.1124365 0.048239246 -0.07178891 -0.0077096527 -0.102658615 -0.5025153 0.07655536
-0.31723368 0.26739714 0.20704879 -0.040737104 0.54674107 0.22312686 0.043553103 0.14874758
-0.3777575 0.22272593 -0.33265 -0.3863441
00000000: ef11 99be 9f52 553e eeff dfbc e76c a8be
00000010: 7ffc 43bd 193d 18be 9bbd e4be c7bc f9bd
00000020: ab8b 6fbe 1c45 e63d 8496 453d 1006 93bd
00000030: 41a1 fcbb ae3e d2bd d8a4 00bf 0ec9 9c3d
00000040: 746c a2be 47e8 883e 9904 543e f3db 26bd
00000050: 39f7 0b3f 5e7b 643e bd64 323d 4951 183e
00000060: 6e69 c1be 4412 643e 1a51 aabe e5ce c5be

features.6.block.4.running_var f4 [28]
0.14919336 0.1451479 0.17336008 0.2883374 0.1990546 0.27795437 0.20933211 0.30367464
0.2506472 0.08065784 0.24414761 0.14580892 0.24071117 0.13820729 0.06834838 0.16827406
0.26982757 0.09703807 0.23031504 0.14554586 0.20002772 0.24858373 0.22094482 0.06351964
0.51238006 0.23399547 0.33450082 0.32538787
00000000: 25c6 183e a7a1 143e 4e85 313e f6a0 933e
00000010: f8d4 4b3e 0950 8e3e 285b 563e 3e7b 9b3e
00000020: d454 803e f02f a53d d501 7a3e ef4e 153e
00000030: fd7c 763e 3686 0d3e 3cfa 8b3d 0950 2c3e
00000040: d726 8a3e e5bb c63d b5d7 6b3e f909 153e
00000050: 11d4 4c3e bc8c 7e3e 5c3f 623e 9616 823d
00000060: 572b 033f 829c 6f3e b143 ab3e 3d99 a63e
