artifacts/tiny_classifier_fp32.onnx (onnx, 24499 bytes, 26 tensors)

classifier.weight f4 [3, 38]
00000000: 0029 3ebe 506a 4d3e 3120 c03e 0e1f c83d
00000010: 3c7e 6e3e eaf8 44be 3ea3 c73e 3040 07be
00000020: 076b 70be 6f4b bc3e 6a4f 54be 39fe 4b3e
00000030: 34d1 25be 680b 443e d78f 903e 129b 143d
00000040: 7aca 8d3e 5e89 a8be 7fd1 8c3d 0c0d 9c3e
00000050: 2a89 613e ac18 13be a16c b13e aa98 00be
00000060: 08c6 d0bd a304 34be 347a aabe fb73 b0be
00000070: 92d3 1c3c 78f7 3ebd a114 c23d 4d46 3dbe
00000080: ee44 8ebe d844 aabe 4d45 2e3e a73b 28be
00000090: 52c8 803e efe6 bf3e dd41 a73e 541b 94be
000000a0: a420 82be 0c89 f0be 2508 6cbe f045 d5be
000000b0: 201a c8be 744f c8be 3e36 a43e 6f70 8dbd
000000c0: a0f0 a13e 27a1 3e3e 915f a3be 2a73 d9be
000000d0: dc64 d1be 2d4e 76be 7179 cc3d 4c7b 643e
000000e0: 57d8 edbe 8b27 43be 2786 d2be 2f15 92be
000000f0: 8cae 70be 7530 64be beb1 e2be 8682 8d3e
00000100: c285 423d f0fd 613e b221 843e 58bf 703e
00000110: d227 743e 441a 813e 0893 953e 8881 6f3e
00000120: 2f57 7a3e 4873 aabe 2497 4fbe 300d f7bd
00000130: 3f0e 29bc 25c8 85bb 900c 77be 75bd 343e
00000140: c64a 5a3e 89eb 323e 0244 3abd 9236 893e
00000150: 3627 97be 783b 20be 408c 31be 4ca1 8abe
00000160: f0d3 973e b50a 993e 3e72 cb3d 1219 963e
00000170: 2c47 a7be f526 673c db45 c73d 60f0 6cbe
00000180: e7fd 033e 6865 783e a303 ebbd 7a1e 8c3e
00000190: 926d 853e f630 6e3e e41c db3d 03df fcba
000001a0: ab6f 1abe e48f c5bd 32d9 9abe 15df 3fbd
000001b0: 09f7 4dbe 1477 32be e676 b7be 1a0b 9d3e
000001c0: 4fd9 61be d943 08be
-0.18570328 0.20060086 0.3752456 0.09771548 0.23290342 -0.19235578 0.3899173 -0.1320808
-0.23478328 0.367763 -0.20733419 0.19921197 -0.16193086 0.19144976 0.2823474 0.0362807
0.2769354 -0.32917303 0.06875896 0.30478704 0.2202498 -0.1436488 0.3465319 -0.12558237
-0.101940215 -0.17579894 -0.3329636 -0.34463486 0.009571927 -0.046622723 0.09476591 -0.18483849
-0.27786964 -0.3325565 0.17018624 -0.16429006 0.25152832 0.37480876 0.32667437 -0.289271
-0.25415528 -0.46979558 -0.23049982 -0.4165492 -0.39082432 -0.39123118 0.32072634 -0.06906211
0.31628895 0.18616162 -0.3190885 -0.42470676 -0.40897262 -0.24053259 0.099841006 0.22312659
-0.46454117 -0.19058053 -0.41117975 -0.28531787 -0.23504084 -0.2228411 -0.44276232 0.27638644
0.047490843 0.22069526 0.25806957 0.23510492 0.23843315 0.25215352 0.29213738 0.23389256
0.2444732 -0.33291078 -0.202725 -0.12063062 -0.010318338 -0.004082697 -0.24125886 0.17650397
0.21317586 0.17472662 -0.045475014 0.26799446 -0.29522103 -0.15647686 -0.17338657 -0.27076185
0.29653883 0.2989098 0.09933899 0.29316002 -0.32671487 0.014108409 0.09730121 -0.23138571
0.12889825 0.24257433 -0.11475303 0.27367002 0.26060158 0.23260865 0.1069887 -0.0019292537
-0.1508166 -0.096465856 -0.30243832 -0.046843607 -0.20113768 -0.17428237 -0.358329 0.30672532
-0.22055553 -0.13307132

classifier.bias f4 [3]
00000000: 8de4 483d b430 b13d d034 c63d
0.049046088 0.086518675 0.09678042

onnx::Conv_115 f4 [8, 3, 3, 3]
00000000: 12f1 843d 5891 c43d 4e35 ddbc e8a0 a33d
00000010: 02e8 27bd 21cb 13bd bb44 2dbd 5499 453d
00000020: 7db3 773d 3e39 54bd b237 1d3e 5965 993d
00000030: 14ca b13d d919 323d 79e1 4f3d 99ae 26bc
00000040: e6f2 943d a64d ba3a 76a4 acbc cc8b ba3d
00000050: dcfc 473c 621e 323c 1604 88ba 8faa aa3d
00000060: a2c6 7cbd e8c3 1ebd b6e6 f2bc da5e 40be
00000070: 9cdf c6bd 84fa 92be 125a be3d 9bf9 a0be
00000080: 232e 943d 0f93 613d 1d84 2f3c 5860 063e
00000090: 93e8 c73d 1dab 313e f46c 9d3d 527c 54be
000000a0: e904 c0bc 6aaa 42be 291d a63c eb89 5c3e
000000b0: 819c d83c c7ae 7f3c 3239 353e edb4 1c3e
000000c0: 82b7 8f3d 7e78 25be 0770 9abe e2ba 20be
000000d0: ac7b 28be cde8 fd3d a0c6 563e b663 d83e
000000e0: 5c8e ec3e 785a d13d df21 fe3e 864b 4bbe
000000f0: 692f 9d3d 4800 fabe 3850 b43d 5d66 8fbe
00000100: 91b6 0b3e 27b0 73bd 7d38 cf3e bb21 a7be
00000110: 8352 89be a868 5ebe d9b8 cc3e 7a60 3f3e
00000120: 03b4 d23e 3026 d6be 3a1b e4be 0df7 c9be
00000130: d0ba b1be 90c1 833e 6095 763e a7a5 b13e
00000140: 5505 88be 70af 62bd 3855 b33d b52a c6bc
00000150: 954a 8c3d 9602 0cbd e3e6 b63d 3c94 0ebe
00000160: ede7 d3bd a106 313d 9913 043d cf22 4abd
00000170: 0dd1 aa3d 2d9a 403d 8b34 12be 7005 a4bd
00000180: 948e 7f3d a8cf e8bd 67ce 63bd 0132 b2bd
00000190: 3a0a 51bd 2c88 9c3d e042 4dbc 3734 a1bd
000001a0: cf65 373d 3db2 adbd 0865 f1bd 5441 ebbc
000001b0: cc5f 1ebe 892a 13be a57a cf3e 24dc c33d
000001c0: 7daa 053e 45fc 5fbe d8b6 acbd 90c7 4e3c
000001d0: 13ef 633e eb51 25be aa0f a1bd 0151 10be
000001e0: 6f67 acbd c758 3fbe 2ecd eabc 2778 c3be
000001f0: ffcc a7be 3faa 5bbe a776 8d3d 1b85 02be
00000200: 84af c93e ec0a 86bc 3cc9 aa3e b7f9 4b3e
00000210: 61ec 78be a54a 913e f978 af3c 1b99 9ebd
00000220: a189 5ebe 64c4 7bbe 59b7 323d cc9e b4bd
00000230: 9b55 d13d d499 6ebe 8ccf 0d3e 605c f9bd
00000240: 3464 27bc 05f6 3f3d e2a7 003e 8741 3e3e
00000250: bf9f 573e 3ab1 17be de06 803c 6bfe f4bd
00000260: b70d 243d 0766 b2bd 4d1e 8a3e 9796 edbd
00000270: db53 373e 0ed8 f33d 2f48 113e 7d69 f2bd
00000280: d14a 6e3e 637b 193e d94c 1d3d c132 28bf
00000290: d013 713e c054 d8bd 194c a9be 0271 f93e
000002a0: 2f3f ef3d 9b49 bfbe 2fca a0be 0baa 47bd
000002b0: e0ea a83e ebb2 62be b509 bfbe 244f 68be
000002c0: 386d 1cbf fae0 603e 7990 073f 040a 25bf
000002d0: 1092 5b3e 16e6 ba3e b3bd f03d 9c54 17be
000002e0: 5aef d53e fac4 973e 1409 9d3e a834 28bc
000002f0: b420 ccbd 59cb 93bc c7ab 5fbd 229c 94bd
00000300: acd5 e83d f321 283e 4174 1ebd c7d6 1bbd
00000310: 12d8 1f3c f2a7 aabc 5c65 0a3b 9e3c 623d
00000320: 42a0 15be db99 a1bd 8bcb 3e3e 0add e23d
00000330: 86f2 5c3c e481 a7bd 1be4 a3bd 807d 9ebe
00000340: 1e5d 22be 7f2d 9c3c 6103 8a3d d5de 3f3d
00000350: 2b18 59be c5ca 1ebe 5d16 58bd 7de9 353e
0.06491293 0.095980346 -0.027002957 0.07989675 -0.040992744 -0.03608239 -0.042301875 0.04824193
0.060473908 -0.051812403 0.15353277 0.07490034 0.086811215 0.04348168 0.050752137 -0.010173463
0.07272892 0.0014213815 -0.021074515 0.091086954 0.0122062825 0.010871502 -0.0010377194 0.08333313
-0.06171287 -0.03876105 -0.029651027 -0.18786183 -0.09710619 -0.28706753 0.09294523 -0.31440434
0.072353624 0.055071887 0.010712651 0.1312269 0.09761157 0.17350431 0.07686797 -0.2075055
-0.023439841 -0.1901032 0.020277577 0.21536987 0.026441814 0.015605635 0.176976 0.15303393
0.07017423 -0.16159245 -0.30163595 -0.1569629 -0.16453427 0.12397919 0.20974207 0.42263573
0.46202362 0.10222334 0.49635217 -0.19853029 0.076750584 -0.4882834 0.08804363 -0.28007784
0.13643862 -0.059494164 0.40472785 -0.32642922 -0.26820764 -0.2171961 0.39984778 0.18689147
0.41152963 -0.4182601 -0.44552022 -0.39446297 -0.3471284 0.25733614 0.2408042 0.34696695
-0.26566568 -0.05534309 0.087564886 -0.024190286 0.06850163 -0.034182154 0.08930757 -0.13923734
-0.10346971 0.043219212 0.032245252 -0.049349602 0.083406545 0.047022033 -0.14277856 -0.080088496
0.062391832 -0.11367732 -0.055616762 -0.08700944 -0.051035143 0.0764316 -0.012528151 -0.07871287
0.044774827 -0.08481262 -0.11786848 -0.028717674 -0.15466231 -0.14371695 0.40523258 0.09563473
0.13053317 -0.21873577 -0.08433312 0.012620822 0.22259168 -0.1614453 -0.07864316 -0.140934
-0.08418166 -0.1868621 -0.02866229 -0.38177606 -0.32773587 -0.21451662 0.06907397 -0.12746088
0.3939172 -0.01636263 0.33356655 0.19919477 -0.24308921 0.28377262 0.021419989 -0.07744046
-0.21732189 -0.24586636 0.043631885 -0.088193506 0.10221406 -0.23300868 0.13848704 -0.12175822
-0.010216761 0.046865482 0.12564042 0.18579684 0.21057032 -0.148137 0.015628275 -0.11962589
0.040052142 -0.087108664 0.26976243 -0.11600988 0.17903082 0.119064435 0.14187692 -0.118365265
0.23270728 0.14988475 0.038403366 -0.65702444 0.23542714 -0.1056304 -0.3306587 0.4871903
0.11681973 -0.37360844 -0.31404254 -0.04874615 0.32991695 -0.22138564 -0.37312093 -0.2268644
-0.61104155 0.21960822 0.5295482 -0.6446841 0.21442437 0.36503667 0.11754932 -0.1477837
0.41784173 0.2964247 0.3067099 -0.0102664605 -0.09967175 -0.0180413 -0.05460718 -0.072563425
0.1136888 0.164192 -0.038685087 -0.038046625 0.009756105 -0.020832036 0.0021117544 0.05523359
-0.14611915 -0.07890674 0.18632333 0.11077316 0.0134855565 -0.081790715 -0.08002492 -0.30955124
-0.15855834 0.019064663 0.06738926 0.04684337 -0.21200626 -0.15507038 -0.052755702 0.1776485

onnx::Conv_116 f4 [8]
00000000: 1c12 1abf 769c 1b3f 68a0 b2be fe47 023f
00000010: 8b8e de3d 5f31 e5be a561 093e e219 2e3f
-0.6018388 0.60785615 -0.34888005 0.508911 0.10867032 -0.4476423 0.13416155 0.68008244

onnx::Conv_118 f4 [8, 1, 3, 3]
00000000: 223a 8a3f bf16 37be 492a b03f d181 aebe
00000010: 5cbe bbbf b771 db3f 1471 07bf 6e79 25bf
00000020: b37c ffbf 6ba7 083f 65ee 4d3f c4aa 603e
00000030: 8409 52bf 6a68 85bf 2af1 7bbf 5e2b 393f
00000040: 7a19 0b3f 93fd 2c3f 47e2 083f ecc8 d23e
00000050: 3c6c 823d 3866 70bf d681 7abf 4ec8 68bf
00000060: 31eb a93e c588 10bf bc49 3ebe a3ba b0be
00000070: ff67 6ebe 2089 c6be 018e 00bf a46f 003e
00000080: d688 08be 0d66 1c3e 8ce6 d0be 9366 ffbe
00000090: 397e 03be 3bce 42bf ea48 c9be 9efa 7fbf
000000a0: 0fb7 8b3e 9161 69bf a6e6 f13e 5b9b b93e
000000b0: 6201 fa3e 01b9 88bf ac6d 433f 16fe 56bf
000000c0: ddac bf3e e885 9b3f fccf 97bd b125 f3be
000000d0: 05fc 32bf 12e5 bcbf a27f bd3e 8fcd 9cbf
000000e0: fe1f 3a3e d48a 853f a6bc 9c3f e459 a1be
000000f0: 2f38 44bf 9755 c23e b543 563e 1f1f 34bf
00000100: 1f06 8cbe a4d4 f0be 9ed6 dcbd d7e2 a1be
00000110: 9a27 1dbe 1dc7 eebc 6763 e8be 97ed 0c3f
1.0798991 -0.1787977 1.3762904 -0.34083417 -1.4667468 1.7144078 -0.5290692 -0.6463841
-1.995993 0.5338046 0.80441886 0.21940142 -0.8204577 -1.042249 -0.9841486 0.723318
0.5433575 0.67574424 0.5347027 0.41168916 0.063683 -0.93905973 -0.97854364 -0.9093064
0.3318725 -0.56458694 -0.18582815 -0.34517393 -0.23281859 -0.38776493 -0.5021668 0.12542588
-0.13333449 0.15273304 -0.40800893 -0.49882945 -0.12841119 -0.7609593 -0.39313442 -0.99991786
0.272881 -0.911645 0.47246283 0.3625134 0.4882918 -1.0681459 0.7633922 -0.83981454
0.37436572 1.215024 -0.07412717 -0.47489694 -0.699158 -1.4757407 0.3701144 -1.2250232
0.18176267 1.0432992 1.2245071 -0.31513894 -0.7664823 0.37955925 0.20924266 -0.7035999
-0.2734842 -0.47037232 -0.107831225 -0.31618378 -0.15347138 -0.029147679 -0.45388338 0.55050033

onnx::Conv_119 f4 [8]
00000000: d6ac d13e a452 41be 969d 923f 76b2 623f
00000010: f7e7 0f3f ab1e 6b3f c5fd dcbe 3fb5 533f
0.40952176 -0.18879181 1.1454341 0.8855356 0.56213325 0.9184367 -0.4316236 0.82698435

onnx::Conv_121 f4 [9, 8, 1, 1]
00000000: ffec 6b3f 299f 9bbe 3a9c babe 48db d7be
00000010: eeaf 99bf b0d2 a5bf 0918 1f3f d096 13bf
00000020: f904 1dbf 41a7 e23c 5d83 84bf 619e aebe
00000030: 93d4 f3bb 7fd6 96be bd33 03bf 0f22 0fbf
00000040: d1cd a9bf 48fa 233f 15fc 22bf a397 ba3e
00000050: d0fa f3be 578f a5bd aab2 933f 2913 de3e
00000060: eede 68bf 70ee 843e 1d4f 903f c380 cc3e
00000070: 08bc cf3e 67d9 9d3f e9ae afbe 53ff 883e
00000080: 3631 4ebf b9d2 25be 63a5 553f 0abd 483f
00000090: b8ad 01bf eae4 30bf bb95 5bbf e0e7 38bf
000000a0: 3945 98bf 92f0 57be a9a1 7f3f 2fb8 a33e
000000b0: 02b8 89bf 4ad5 70bf 8172 dd3e e12e 8dbf
000000c0: 0372 063e 9115 ab3f 0155 2fbf 84e9 da3d
000000d0: aeb0 e43e e7d1 1bbe 2872 84be cacf ddbf
000000e0: c1ec 2fbf 244b 51bf ae62 ca3f 0e10 8dbe
000000f0: 9f78 59bf d6aa 073d fc9d a4bb c24e 913f
00000100: 0349 e63e 27c1 0f3f f13e 35bf de82 ce3d
00000110: 7ddb ac3e d4a6 07be c5a4 f8be 5a97 3d3f
0.921585 -0.30394867 -0.36447316 -0.42159486 -1.2006814 -1.2954922 0.6214605 -0.57651997
-0.6133571 0.027667644 -1.0352589 -0.3410521 -0.0074411123 -0.29460523 -0.5125082 -0.55911344
-1.3265935 0.64053774 -0.63665897 0.36443815 -0.47652292 -0.080839805 1.1538899 0.43373993
-0.90965164 0.25963163 1.1274143 0.39941987 0.40573144 1.2331971 -0.34313133 0.26757297
-0.8054384 -0.16193666 0.83455485 0.7841345 -0.506557 -0.69099295 -0.85775346 -0.72228813
-1.1896125 -0.21087864 0.9985605 0.31976458 -1.075928 -0.94075453 0.43251422 -1.1029931
0.1312943 1.3365957 -0.6848908 0.10689071 0.44666046 -0.1521679 -0.25868344 -1.7329037
-0.6872063 -0.8175528 1.5811365 -0.2755131 -0.8494968 0.033121906 -0.005023716 1.135216
0.4497758 0.561541 -0.70799166 0.10083555 0.33761206 -0.13247234 -0.4856321 0.7405907

onnx::Conv_122 f4 [9]
00000000: 64c6 9e3f e88e c03f 40c8 bdbc 87e6 b0bf
00000010: 9ef2 343f 8980 6c3f bae4 213f c46e 92be
00000020: 0b50 cfbd
1.2404294 1.5043612 -0.023166776 -1.3820351 0.70682704 0.9238363 0.63239634 -0.28600132
-0.10122689

onnx::Conv_124 f4 [9, 1, 3, 3]
00000000: 9b12 66be 7181 ccbe 924b ecbe 383c 8cbe
00000010: 93e2 35be 2e20 47be 9ce9 163d 13cf b3be
00000020: d07b c6be 5eca 4a3e cee1 0940 3bc0 b03f
00000030: de49 89bf f2d5 e5be f14a d1bf 494f a7bf
00000040: 0caf 38be 5883 4c3f f8aa 3f3f 1b39 9dbf
00000050: b24c 073f 2f23 76bf 04c8 d73d a4c2 2e3f
00000060: 3a97 3abd bde5 6b3f 4538 85bf 976d afbe
00000070: 17ca 7e3f 3dea d6bd 20de 2dbf a691 8cbf
00000080: 900b 8c3f f1f2 b93f b744 563f a81d cfbe
00000090: 68ba 00c0 2d21 013f b9d4 3b3f e46f e2bf
000000a0: 22a3 f8be b353 b53f 78da e3bd 52ea 76be
000000b0: 56ca fdbe dd65 2dbf 7ba2 6cbf 8c05 0bbf
000000c0: 28e6 b6be e63f 823e d33d cebd bb4e 0dbe
000000d0: f26b 0f3f 02f5 903e ef2d 9c3e 2f10 e5be
000000e0: bc3f e4be eec8 7e3e 849f b3be 4c37 d7be
000000f0: 28f7 b9bc 8847 9abe f2e6 10bf abb7 363f
00000100: 7e2c 3d3f 4d19 a23e 6bc9 ddbe 701a 99bf
00000110: 31ae 15bf 9529 523e 327f 8b3e 7a26 52be
00000120: 2809 30bf 2c95 b23e 1b33 cabf 12ac 593f
00000130: 31d5 13bf 3f9b bbbd 20bd d6bd 7867 153e
00000140: 5dcd a5be
-0.22468035 -0.39942506 -0.46151406 -0.27389693 -0.17762212 -0.1944587 0.03684388 -0.35118923
-0.38766336 0.1980376 2.154407 1.3808664 -1.0725667 -0.4488979 -1.6350995 -1.3071071
-0.18035525 0.79887915 0.7487025 -1.2283052 0.528514 -0.96147436 0.10536197 0.6826575
-0.045554377 0.9214743 -1.0407797 -0.34263298 0.99527115 -0.10493896 -0.6791706 -1.0981948
1.0941029 1.4527265 0.836986 -0.40452313 -2.0113773 0.5044125 0.73371464 -1.7690396
-0.4856196 1.4166168 -0.11125654 -0.24112824 -0.49568433 -0.67733556 -0.92435426 -0.5430534
-0.3572247 0.25439376 -0.10070386 -0.13799565 0.56024086 0.28311926 0.30503795 -0.4473891
-0.44579875 0.24881336 -0.35082638 -0.42034376 -0.022700861 -0.301327 -0.56602395 0.71374005
0.73896015 0.31659928 -0.43317732 -1.1961193 -0.5846892 0.20523675 0.2724548 -0.2052249
-0.6876397 0.34879434 -1.5796846 0.85028183 -0.5774718 -0.0916047 -0.104852915 0.14590251
-0.32383242

onnx::Conv_125 f4 [9]
00000000: 44c9 573f 9c01 99bc 4059 94bc ef57 e0be
00000010: 3ae7 743f 72b4 2d3f 431b 4d3f 7804 963d
00000020: b394 3d3f
0.8429148 -0.018677525 -0.018108964 -0.43817088 0.95665324 0.6785346 0.80119723 0.07325071
0.7405502

onnx::Conv_127 f4 [14, 9, 1, 1]
00000000: 70fe 903e f442 d63d 558e 1b3f de97 9c3e
00000010: baa4 5cbf 37ff 29bf a645 303f 7d44 1b3f
00000020: 9086 2bbf f79e 53bd 9d6d 83bf e058 24bf
00000030: 818a e83d 9fb0 42be 3b31 0dbd c6ef 46be
00000040: eef4 9c3f f8a4 273e ab64 c7bf 883b f23e
00000050: 0724 f2bd 9ebf c83d dd90 93bf 15d0 293f
00000060: b9a0 34bf c278 01bf f13d 8cbf 6aae 573e
00000070: 8c89 3c3f e368 243f 7548 043f fcd4 5a3f
00000080: 9eea 1cbe 801e 30be 4492 bc3e eb72 d2be
00000090: df69 37bf 32b3 c2be e220 af3b 1d8a 243f
000000a0: f982 54be ebbe 27bf b478 68be fb26 20bf
000000b0: 3e7d f2be 398a 0c3f 9b82 df3d 640f 3e3f
000000c0: 1e22 9c3f 546f 573d 150c b23e f6dc 44be
000000d0: 7d00 103d 837a 70be 3946 c13e 0865 013f
000000e0: 2f16 6d3f dd96 b7be 8237 bdbe ded2 7ebe
000000f0: c6b8 85bf 2858 ba3e 149e 933f 44f7 773f
00000100: b9a8 ca3e 648f 24bf dcc0 84be 0a7b ffbe
00000110: 9d55 d1bd cb1e 133d e076 4abf f3d4 f63c
00000120: d9b7 a7be 8a6c 2ebf a91a 3abf fa87 493f
00000130: e501 51bf f851 1f3f 8d0a 3b3e 421c 39be
00000140: b7ed c53e ee8c 85be 525e f93e 856d 0c3f
00000150: 496c 6fbf c7d9 353f efa9 143f 0338 daba
00000160: 5c7c c5bd 156a b23d a0a1 34bf 2da9 d6bd
00000170: 798b 3b3f 3411 c23e ebde c23d 5168 52bf
00000180: 4faa 30be b1d6 39bf 0116 533f d276 25bf
00000190: 357e ea3d 8da8 3cbe 8073 a83e 8b1e 6b3f
000001a0: ac65 a23e b1e1 1b3f c410 673f a38b 373e
000001b0: 7896 0bbf 10f8 1dbf 83c2 9c3e 615d 0abe
000001c0: d56c fc3e 608c 6f3d 5449 6ebf 2d44 233f
000001d0: f147 ca3e 711e 833e 35ef d43e 073c 4f3f
000001e0: 7abb 7f3f 141e 31bd 6a51 11bf 2b4f 29bf
000001f0: 40d0 c5be b4ba 07bf
0.2831912 0.10461989 0.60764056 0.30584615 -0.8618885 -0.6640505 0.68856275 0.6065138
-0.670022 -0.051665273 -1.0267826 -0.6419811 0.113545425 -0.19012688 -0.034470778 -0.19427404
1.2262247 0.16371524 -1.5577596 0.47311044 -0.11823278 0.09802173 -1.1528584 0.66333133
-0.70557743 -0.50574887 -1.0956403 0.21062627 0.7364738 0.64222544 0.5167306 0.8548124
-0.15323874 -0.17199135 0.36830342 -0.411033 -0.7164592 -0.3802734 0.005344496 0.64273244
-0.20753087 -0.6552569 -0.22702295 -0.6255948 -0.47361177 0.5489841 0.10913583 0.74242234
1.2197912 0.052596405 0.34774843 -0.19224915 0.035156716 -0.23484235 0.37748888 0.50544786
0.92611974 -0.35857287 -0.36956412 -0.24885127 -1.0447013 0.36395383 1.1532617 0.9686167
0.3958185 -0.64281297 -0.2592839 -0.4989856 -0.102214076 0.03591804 -0.7908764 0.030130839
-0.32757452 -0.6813437 -0.7269693 0.7872311 -0.81643516 0.6223445 0.18265744 -0.18077186
0.38657925 -0.26084083 0.48704773 0.54854614 -0.93524605 0.71035427 0.580718 -0.0016648773
-0.0964286 0.0871164 -0.7055912 -0.104814865 0.73259693 0.3790375 0.095151745 -0.82190424
-0.17252468 -0.7259322 0.8245545 -0.6463443 0.11449853 -0.18423672 0.3290062 0.9184348
0.31718194 0.6089125 0.9025996 0.17924361 -0.5452647 -0.6170664 0.3061715 -0.13512184
0.49301782 0.05848348 -0.9308064 0.63775903 0.39508012 0.25609162 0.4158875 0.8095097
0.9989544 -0.043241575 -0.56764853 -0.66136426 -0.38635445 -0.5301926

onnx::Conv_128 f4 [14]
00000000: 80e9 843e 28d2 4d3e 5076 b83f 2d16 47bf
00000010: 5ecd 463f 785a 4bbf de9d 40bd 22d8 233e
00000020: b95a b83d 5a72 aebe c055 d43e 7b23 81bf
00000030: 9411 833e f7da 2b3e
0.25959396 0.200997 1.4411106 -0.7776821 0.77657115 -0.7943492 -0.047025554 0.16000417
0.09001679 -0.34071618 0.41471672 -1.0088953 0.2559935 0.16782747

onnx::Conv_130 f4 [14, 1, 3, 3]
00000000: a81e 09bf b132 7ebf 2b09 67bf 009d 59be
00000010: 8404 21bf 3ff8 b6be 60a8 3c3e ff59 a33e
00000020: 6c8c 3fbe 068f 04be 78b2 c03e 77a1 52be
00000030: 3aed 4ebe b7d3 0b3f af97 debe 799d bb3e
00000040: cd49 403f 1ffc 013f 9887 4e3e 40ac 2cbe
00000050: c717 f13d 7e68 603e 493d 2c3f df6b 343f
00000060: f4e5 8a3f 0140 333e 9be0 ae3e 6bae 01bf
00000070: a251 e7be be1f b33c 3b47 2cbf 47a7 cf3e
00000080: 4fcf 90bd 4909 dbbe 06bf d83e 7869 35bf
00000090: 17eb e5be 4a68 4cbe baba 74bf d5e6 2bbf
000000a0: f6f3 9abd 8a8c 5c3f 6755 c13f 1c0f 653f
000000b0: aa3f b9be 7a4e a8be c366 153f 821f c33e
000000c0: b555 a03c 6920 243e 59ed 22bf 507e 49be
000000d0: 7c20 303f ad8b 27bd 39c5 7cbe 170c 49bf
000000e0: 941a 94be 7b94 49be d926 f3be 542a a8bd
000000f0: 4185 203d 3f00 12bf 6c39 d53d a2ae d5be
00000100: 35fe 6fbf 9835 e23e 56fd 5e3f 4083 0dbf
00000110: fc16 e0be 31de 0abf d10a 1ebf 3045 87bf
00000120: ffb1 a3bd 6fa3 cf3e 1e57 31bf ba1b 823f
00000130: 6312 973f 61ed f0be ccca 67bf b213 a53d
00000140: 85dc b5be 711f 70bd 1e8c 04bf d132 473f
00000150: d231 13bf 03d6 5c3f 9227 a23d 26f2 813e
00000160: 93c0 613f 7ef3 bfbd c003 abbe 373a 4ebe
00000170: 2178 e43e 7c2d 34bf f6d3 fb3d 7f8b 64bf
00000180: b049 9f3e a704 973e 3a6c 013d 1b8c 163f
00000190: 5365 543e 0641 3f3f c454 9dbe cf6c 253d
000001a0: 92a2 0b3f 4eda 583f 318e f43e dd2a bebe
000001b0: 24a4 303f 433a b6be ae8a adbe 3b5c 81bf
000001c0: fbf5 c3be 7ecf 293f d4a9 063e 7107 59bf
000001d0: 6fe2 a23e 3a5a 5bbe b51e 993e 0092 0dbf
000001e0: 1ef5 3cbe 9e80 18bf afe7 a5be 6244 c03d
000001f0: 9cf9 963e 23de 5cbd
-0.535624 -0.992961 -0.90248364 -0.21251297 -0.62897515 -0.35736272 0.18423605 0.319046
-0.1870591 -0.12945184 0.3763616 -0.20569406 -0.20207682 0.54619926 -0.434751 0.3664358
0.7511261 0.5077533 0.20168912 -0.16862583 0.11772113 0.2191486 0.67281014 0.704771
1.0851426 0.17504884 0.34155735 -0.50656766 -0.45179468 0.021865722 -0.6729619 0.4055731
-0.07070791 -0.42780522 0.4233324 -0.7086406 -0.44905922 -0.19961658 -0.9559742 -0.67149097
-0.07566063 0.86151946 1.5104188 0.8947618 -0.36181384 -0.32872373 0.58359927 0.38109976
0.019572118 0.16027988 -0.63643414 -0.1967709 0.6879957 -0.04090469 -0.2468461 -0.7853407
-0.28926528 -0.19685547 -0.47490576 -0.082111984 0.03918958 -0.57031626 0.10411343 -0.41734797
-0.93747264 0.44181514 0.8710531 -0.55278397 -0.43767536 -0.5424529 -0.61735255 -1.0567989
-0.079929344 0.40554377 -0.69273555 1.0164711 1.1802486 -0.47056106 -0.9054382 0.08060397
-0.35519806 -0.058623735 -0.517763 0.77811915 -0.57497895 0.86264056 0.07917704 0.25380057
0.8818447 -0.09372614 -0.334013 -0.20139395 0.446229 -0.70381904 0.12296288 -0.89275354
0.31110907 0.29495737 0.031597354 0.58807534 0.20741777 0.7470859 -0.30728734 0.04038697
0.5454494 0.84708107 0.47764733 -0.37142077 0.6900046 -0.35591325 -0.33894867 -1.0106272
-0.38273606 0.6633223 0.13150722 -0.8477698 0.3181338 -0.21421137 0.2990624 -0.55300903
-0.1845288 -0.59571254 -0.32403323 0.09388043 0.29487312 -0.053922784

onnx::Conv_131 f4 [14]
00000000: 04a4 b83f 2522 debe 20b8 48bf 413a 303f
00000010: fe99 36be 5b8c 3ebe 5d09 833f f285 c63f
00000020: ae29 d9bd 3866 dabe eed4 8f3e be2f 47bf
00000030: 298b 023f f36a a93e
1.4425054 -0.43385425 -0.7840595 0.6883889 -0.17832181 -0.18608229 1.0237232 1.5509627
-0.10603653 -0.42656112 0.2809214 -0.77807224 0.5099359 0.33089408

onnx::Conv_133 f4 [19, 14, 1, 1]
00000000: d3f6 e23e 04eb f33c 0c2a d13e f662 153e
00000010: 7240 943e f74d ccbe 4f5e 313f 04bd f53e
00000020: 706b 72bd 964f 71be ee74 c2be 37d0 123e
00000030: f6e9 2ebf 1f68 5c3e ae6e 1b3e 49d5 a2be
00000040: b049 483e 4c00 a8be f331 753e c9a1 7f3e
00000050: 299f 55bf 5f4d 153f a601 da3e 5763 003e
00000060: 9dd7 ffbe 7d33 233d d179 cdbd 1101 60be
00000070: 3826 6e3e 2b1c 963e b3b5 553f cf86 44bf
00000080: 8221 293e 056f 10be 0b8b 25bf c4f9 eebe
00000090: ec52 99be ec93 b03e ce71 1abf 66b9 01bf
000000a0: 0032 3d3e 66ec 863e 4709 173f 2464 75be
000000b0: 66f2 ddbe 29b1 473e ee77 b23e 647b 8e3e
000000c0: e622 903d 4ec7 d13e bf71 063f 842a 0cbe
000000d0: f46b 80be 88db 023f d324 87be cba2 95be
000000e0: 5c83 453f e0f2 563e 5aab b3bd c983 18be
000000f0: 0bfd 0ebe db81 ab3e b0e9 c1be 2648 92bd
00000100: 286e f83d 9c3e bfbe 4763 da3d dd43 06bf
00000110: 382a 24be bb60 93be 6a96 21bf 02f2 fcbe
00000120: 9b07 193f c313 8a3e 8e11 dabe 0b1b a0be
00000130: adc7 153f 030f fe3c 21b4 3a3d c7b5 86be
00000140: 4542 ffbd f77b 6ebd 1b17 2abe 455a 42bd
00000150: 672b 7e3e a2f9 64bc 63e4 60be ba4f 163e
00000160: 47f4 a1be 46c5 3b3e b2b9 6b3e a126 44bf
00000170: 6d0b 58bf 980d 353e 845a 533e 66d7 6fbe
00000180: f951 0e3f ef13 adbe c5db aa3e da2e 853e
00000190: 65ef dabe 02e7 8d3e e379 a0be 5840 5ebe
000001a0: d899 90be cc8d 19bf 13d5 b03e bf9e a3be
000001b0: b764 953e 3c5a 02bf 21dd b23e 3dd9 6fbe
000001c0: a26c 2abf 3970 cc3e 22b9 023f 895a 163f
000001d0: a891 46be 0db6 20be 3fe4 8a3e f19c 8b3e
000001e0: 43a9 713e c773 d93e 9339 5f3d cba7 013f
000001f0: bc21 573e b8d8 95bc 7c3a 033e 863f 083e
00000200: 1f08 e43e fc34 27be 0618 10be f7a4 953d
00000210: fac8 8f3e 8150 dd3e 83a9 74be 2d41 143f
00000220: d590 febd 6ceb 043f 290e 0e3e b36f a9be
00000230: b367 d7be aaad 01bf 911d 963e d8ec 5cbe
00000240: 72ba b9bd 7b48 abbd 4760 80bd 2fd5 a7bd
00000250: 568d f4be da8e d6be c482 cbbe 2893 73be
00000260: dbb4 79bd 642c 4d3c f4a1 6dbe 82ab 653e
00000270: 2740 3b3f 3deb b03e a6c4 80bd a7c2 dcbe
00000280: fb01 b33e 32f6 e9bd d0db fd3e 3777 b43e
00000290: fa7c 813e 4d66 a23e 1671 173f d7a4 053d
000002a0: ba06 e0be edca c43e aa78 33be f84e debe
000002b0: 3eb9 fb3e b803 293e 664c bc3d ae64 c33e
000002c0: 96d9 0abf 35c1 d0bd e11c 9c3e f401 963e
000002d0: 107c 58bc 3d54 a9be d250 c5be bc0d 1a3f
000002e0: 032e 0cbc 12ee 163f ea89 3e3d 49f9 f53d
000002f0: cfe7 ed3e e303 eabb 2c1b 173e 1bf6 f53e
00000300: f8a1 423f 9e22 0b3f a997 dfbd eb69 afbe
00000310: 1818 503e d8af 983e 1ca3 84bd dac1 33be
00000320: a1a9 453e c2c1 803e 9074 6a3d 1544 263e
00000330: 4fba 83be 7a00 7fbe 7259 cabe 592e 2d3f
00000340: 0f37 433e b251 403e d85a 50bc cd9a 983d
00000350: 578c 5b3e 8be0 2abf cdce 22be 02b6 a8be
00000360: 4d44 cdbe f08b e1be 1895 183f 023b a33e
00000370: 98a3 7c3d 0b07 3d3f 1ae2 67be 58f9 f23d
00000380: 6ebb f73e accc 02be fb12 dabe 44f5 e2be
00000390: f053 ce3d 9994 04bf 763e 4c3e 5a77 893f
000003a0: 3402 ccbd 6c54 8dbe d518 5a3e bcfe 84bb
000003b0: e007 2fbe 88e4 093f d048 87be 54a1 c7be
000003c0: f586 6fbe 1267 ae3e adcd a8be 7f9e a6be
000003d0: 876c 853d e8bc 49bb 687c c3bd 5f32 f2be
000003e0: 9a0c 843c 734f 84be 11cd 48be ebf0 21be
000003f0: a756 083e 9e9d d8be 0e6a f8be d0d3 c1be
0.44328937 0.02977515 0.40852392 0.14588532 0.28955418 -0.39903232 0.6928453 0.4799577
-0.05918449 -0.23565516 -0.37979835 0.1433724 -0.68325746 0.21524094 0.1517894 -0.3180335
0.1955936 -0.32812726 0.23944835 0.2496406 -0.83445984 0.58321184 0.42579383 0.12537895
-0.49969187 0.039844025 -0.10033 -0.21875407 0.23256767 0.29318365 0.83480376 -0.767682
0.16516688 -0.1410485 -0.6466529 -0.4667493 -0.29946077 0.34487855 -0.603299 -0.5067352
0.18476105 0.26352233 0.5899853 -0.23963982 -0.43348998 0.19501175 0.34857124 0.27828515
0.07037906 0.4097237 0.5251731 -0.13688093 -0.25082362 0.5111623 -0.26395282 -0.29225764
0.77153563 0.20991087 -0.08772917 -0.14894022 -0.13963716 0.3349751 -0.37873602 -0.071426675
0.12130386 -0.37352455 0.10663467 -0.524473 -0.1603173 -0.28784737 -0.6312014 -0.49403387
0.5977723 0.26968202 -0.42591518 -0.31270632 0.58507806 0.031013018 0.04558194 -0.2631056
-0.12463812 -0.05822369 -0.16610377 -0.04744937 0.24821244 -0.013975533 -0.21962123 0.14678851
-0.3163168 0.18336973 0.23020056 -0.76621443 -0.84392434 0.17680967 0.20639998 -0.23422012
0.5559383 -0.3380427 0.33370796 0.26012307 -0.4276077 0.27715307 -0.31342992 -0.21704233
-0.28242373 -0.5998199 0.34537563 -0.3195705 0.29178402 -0.50918937 0.34934333 -0.23422714
-0.6657201 0.3992937 0.5106374 0.58731896 -0.19391501 -0.15694447 0.27127263 0.27268174
0.23599724 0.42471144 0.054498266 0.50646657 0.21008962 -0.018291816 0.12815279 0.13305482
0.44537446 -0.16328806 -0.14071664 0.07306855 0.2808302 0.43225482 -0.23892789 0.5791195
-0.12429968 0.51921725 0.13872589 -0.33093032 -0.42071304 -0.50655615 0.29319432 -0.21574724
-0.09068765 -0.08363434 -0.062683634 -0.081949584 -0.4776408 -0.41905862 -0.39748204 -0.23786604
-0.060963493 0.012522791 -0.23206311 0.22428706 0.73144764 0.34554473 -0.06287508 -0.43117258
0.34962448 -0.11423911 0.49581766 0.35247204 0.25290662 0.31718674 0.5915693 0.032627907
-0.43755132 0.3843607 -0.17526498 -0.43419623 0.49164766 0.16505325 0.09194259 0.3816275
-0.5423826 -0.10193101 0.30490783 0.29298365 -0.013213173 -0.3307208 -0.38538224 0.60177207
-0.008555892 0.58957016 0.046518244 0.12010438 0.46465918 -0.0071415766 0.14756459 0.48039326
0.76028395 0.54349697 -0.10917599 -0.34260496 0.20321691 0.29821658 -0.06476423 -0.17554417
0.1930299 0.25147825 0.05724007 0.16236909 -0.2572808 -0.24902526 -0.39521366 0.67648846
0.19063972 0.18781164 -0.012716971 0.07451401 0.21440254 -0.66748875 -0.158992 -0.3295136
-0.40091172 -0.44052076 0.596025 0.31880957 0.061679453 0.7383887 -0.22644845 0.11863965
0.48385185 -0.12773389 -0.42592606 -0.44327748 0.100746036 -0.5178924 0.19945702 1.0739548
-0.09961358 -0.2760347 0.21298535 -0.004058687 -0.17092848 0.53864336 -0.2642274 -0.3899027
-0.23391326 0.3406301 -0.32969418 -0.32542798 0.065148406 -0.0030782763 -0.09545213 -0.47304055
0.01611929 -0.25841865 -0.19609477 -0.15814559 0.13314305 -0.42307752 -0.48518413 -0.37856913

onnx::Conv_134 f4 [19]
00000000: c19c 05bf 515f c6bd d671 013f 779d 32bf
00000010: dd71 c63e 35be 7c3e 3c99 f23e 5a71 173f
00000020: a3df 7dbf e444 7ebf 3540 853f 681b 80bf
00000030: 8318 0f3e c1d1 81bf cfae a1be b513 803e
00000040: a82c f7be 8ecd 243f 0204 f9bd
-0.5219231 -0.09686149 0.50564325 -0.6977152 0.38758746 0.24681933 0.47382534 0.59157336
-0.9916937 -0.9932387 1.041022 -1.0008364 0.13974194 -1.0142137 -0.3157868 0.25015035
-0.48276258 0.6437615 -0.121589676

onnx::Conv_136 f4 [19, 1, 3, 3]
00000000: 6cb4 1abe 76a4 35bf 2bc2 66bd a14a 3cbf
00000010: 307d 25bf 49e6 fdbe e2df c23e 845d 973d
00000020: 9fc0 0abe 7a6d ac3e ec5a 193e 6856 173f
00000030: 7dea 833e 1adb 943e 34fb a83c 4908 183f
00000040: 57d7 503e 0ce6 70bd c89e 863e 83ad 063f
00000050: ce06 cb3e 621f d23d 4a9f 09bc 1102 863e
00000060: 4f01 9b3e 98a2 8cbe c47a 283d e1de 7ebf
00000070: 7e6d 0d3e 5880 173e b2cc 46be 611d fe3d
00000080: 8d14 083f 8074 2dbe 9c2b 3bbf b31b 4f3f
00000090: 3e3c e4be d694 00bf ee05 0ebe ea09 5dbe
000000a0: 4794 5abf 9cc0 56bd e4dc 44be 5498 15bf
000000b0: 9861 98bd 41db b4be d983 01bf 6608 e4be
000000c0: 4f67 4bbd 0f16 f8be af75 86be 0b96 dd3d
000000d0: 7f1b 02bf 9b69 ccbe ed62 b53c d92a 043e
000000e0: 6a85 343f 2177 62bf f961 403e e8a2 c23e
000000f0: f5d9 81bc 1933 babf f4e6 18bf db96 babf
00000100: 34af 57bf c8bf d63d a14f 58be 06ac 303e
00000110: 028f 00bf 2dc1 783d e3ee 0bbf 2e9e f43d
00000120: 0ad1 d9be f054 80be 4608 46bf 2668 113d
00000130: 6703 163f c30f c33e 50b0 d6be 4c62 b1bc
00000140: 1674 e2bd 3143 30bf a072 c33e 0f85 88bd
00000150: 8a45 ab3e 0411 e0bd 7573 ca3c be66 db3e
00000160: f1f0 163f 323e 013f 2a83 5fbf eaf5 273f
00000170: af6f 143e 7aba 82bf 2b5d 49bf d8b4 8c3f
00000180: a3bc fabe 1add 42bf ced4 b9be b8da 96be
00000190: 7783 09bf 2b04 1fbf a5b8 283e 5f0c 9c3e
000001a0: 7889 753e 0f16 f9be 3962 dc3d 67bb 16bf
000001b0: ac9e 503e 5a46 a53e 1a52 853e d081 e13e
000001c0: f423 ef3e 8755 643e 65ce 803e 83f6 92bd
000001d0: ce3f 903e 3fe7 4fbd a709 c1bd 3fca b6be
000001e0: 3e40 95bd 5d15 c2be bb59 1ebe 9859 16be
000001f0: 08ba 11bf cb38 bdbd 2674 b23e 150b 0b3f
00000200: b275 f43e 82c9 fb3a 6915 ffbd cb8a bc3e
00000210: e084 263e 0fb3 77be a0e4 233e 5d29 d03e
00000220: ff3a e73d f814 26be 54d7 d03e d004 033f
00000230: bb03 cb3e 81d9 99be a1f5 b33e b71d 2ebe
00000240: e2a1 503f 21ce bbbe 859d 393d d768 193f
00000250: bcc1 0a3f 8672 a0be 97e4 6f3f 1c44 103d
00000260: d0f9 72bf 84a8 98bd e939 023f 060c 34be
00000270: 67dd 183f 6efa 57be 5cd5 533f 4aae 9c3f
00000280: 5fa0 753f cb51 543e d7fe 64be 3489 513e
00000290: 81f1 5dbe a6d6 0e3f a767 87be 385f 903e
000002a0: 2deb 453f 9c9a 0a3f 602d b93e
-0.15107888 -0.7095407 -0.056337517 -0.73551375 -0.64644146 -0.49589756 0.38061434 0.073908836
-0.13550042 0.33677274 0.1497609 0.5911622 0.25764838 0.2907341 0.020627595 0.5938764
0.20394646 -0.05881314 0.26293015 0.5260851 0.3965363 0.10259892 -0.008399794 0.26173452
0.30274436 -0.274678 0.041132703 -0.99558836 0.13811299 0.14795053 -0.19414023 0.12407947
0.5315636 -0.16938972 -0.7311342 0.8090164 -0.4457721 -0.50227106 -0.1386945 -0.21585813
-0.85382503 -0.05242978 -0.19224888 -0.5843556 -0.074404895 -0.35323527 -0.5059181 -0.44537657
-0.04965907 -0.4845433 -0.2626166 0.10819634 -0.50823206 -0.3992432 0.022141898 0.1290697
0.70516074 -0.88463026 0.18787374 0.38014913 -0.015851 -1.4546844 -0.59727407 -1.4577287
-0.84251714 0.10485798 -0.21124126 0.17253122 -0.5021821 0.0607311 -0.5466139 0.11944233
-0.42542297 -0.25064802 -0.77356374 0.035499714 0.5859894 0.38097963 -0.4193139 -0.021653317
-0.11057298 -0.68852526 0.3817339 -0.06666004 0.33451492 -0.109407455 0.024713257 0.42851824
0.589614 0.5048553 -0.87309515 0.6560961 0.14495729 -1.0213158 -0.7865779 1.0992689
-0.48972043 -0.76118624 -0.3629517 -0.29463744 -0.53716224 -0.62115735 0.16476686 0.30478188
0.23978221 -0.48649642 0.10760922 -0.58879703 0.20373029 0.32280236 0.260392 0.44044352
0.46707118 0.22298251 0.25157467 -0.07175925 0.2817368 -0.050757643 -0.09425669 -0.35701177
-0.07287644 -0.37906924 -0.15463917 -0.14682615 -0.56924486 -0.09239348 0.3485424 0.54313785
0.47746044 0.0019209834 -0.124552555 0.3682464 0.16261625 -0.24189399 0.16005182 0.40656558
0.112905495 -0.16218936 0.40789282 0.5117922 0.39651284 -0.30048755 0.35148337 -0.17003523
0.81497014 -0.366807 0.045316238 0.599256 0.54201865 -0.31337374 0.93708175 0.035221204
-0.94912434 -0.07454017 0.50869614 -0.17582712 0.59712833 -0.21091625 0.82747436 1.2240689
0.9594783 0.20734327 -0.22362839 0.20462495 -0.21674158 0.5579628 -0.26446268 0.28197646
0.77311975 0.54142165 0.3616743

onnx::Conv_137 f4 [19]
00000000: b1b2 7c3f b316 59bf f5e9 27bf 0bca 7abd
00000010: f2de a13f 2ac4 9b3f 370d 333f fa6a 963f
00000020: 8081 093e 248d fbbe cc31 583f 33c4 023f
00000030: 7c97 1ebf 7da3 1e3f 87fd 0cbf 866a 08bf
00000040: 6626 bfbe 2435 6dbf 44f6 20bf
0.9871016 -0.8480026 -0.65591365 -0.06122784 1.2646163 1.216924 0.6994204 1.1751397
0.13428307 -0.4913112 0.84450984 0.51080626 -0.61949897 0.61968213 -0.5507435 -0.5328754
-0.37333983 -0.9265921 -0.6287577

onnx::Conv_139 f4 [28, 19, 1, 1]
00000000: b9d5 10bf 7550 c03e 91b7 efbd 7f0e e9be
00000010: ca94 2d3f 3951 d2be 5714 8bbd c6b7 b03e
00000020: fdfa afbe 0798 c5be cb60 3bbe 75ca e63c
00000030: d968 893e c2ed 1ebf 79ec 333d a2c1 45bd
00000040: 6efd 93be 8a52 31bf fe80 1e3e 0ab1 2dbe
00000050: c8b9 20bf 6ead 5c3f 7cc2 6bbc 5278 9ebe
00000060: 0e88 8bbc fba6 ed3d d510 ff3e 59c6 c93e
00000070: 53f4 a3be b2df 923e 8dbc 7a3e 9ebe b43d
00000080: c03a 213f 97ed a93e 3756 81be 4de0 d63e
00000090: 03e9 83be bc74 f8bc 1675 14bf d6d3 d2bd
000000a0: 43a3 a3be 3bc1 0c3e 881b 3cbe 1301 d23e
000000b0: 69fa 883e 4817 f83d 77d6 033d 797a 01be
000000c0: 3999 c73e 4717 debb 6057 6fbe 9744 dd3e
000000d0: e98c 78be 3922 bcbe 6f1f 043e a55d 03be
000000e0: af0c 2b3e b343 a63d e6bb 8cbd 189a 813d
000000f0: 5125 91bd 61a8 9b3e cdf4 cc3e 5137 93be
00000100: 5057 d5be 4785 9ebe df03 28be cf06 32be
00000110: ae71 40bd 9874 a6be 208d 10be fb78 67be
00000120: a09f d1be afb7 8c3e bb3c e6bd e75f 4cbe
00000130: be69 343d d65f b2bd bd39 993d ac56 2d3e
00000140: 0415 0b3f 594f f7be 2d99 d2bd f3ae a33e
00000150: 78c3 9dbe 753c c63e 5825 843e d34e 1ebe
00000160: f1dc 543e d637 f3be 5321 acbe 1bcb fd3d
00000170: 74b8 b33d d042 05bf 878d bdbc 9337 a7be
00000180: 7a44 663e fd78 913e 267d d5bd 987e b7be
00000190: bd8b 073e 2384 4cbc 68b6 523d cafd 39bc
000001a0: c31a 693d f3de 94bd 7b8b efbd 6280 813e
000001b0: 63be d4bd a932 203e 3986 02be 6dd0 8c3c
000001c0: 3da1 2abe 166f e6bd 6633 1cbe 26bf 7abe
000001d0: ff33 1dbc 386e 5ebe 1672 00bf 6551 cebd
000001e0: 8def eb3d 3286 babe f5db 863c f8c7 b8be
000001f0: 3ae4 8bbe 83f3 953e e56e 4ebe 7d97 703e
00000200: 5fd5 273e 110e 0dbe affb ce3c 5b88 3e3e
00000210: 97fc 7cbe c12f 80be 38f1 923e 25d8 ce3d
00000220: a1b3 11be 2e8f a63d ec7c 00bd 1471 53be
00000230: 70c1 16bc df3f 5ebc fda9 0abe 5f77 c93d
00000240: 8a9c 92be 2724 b13e a0d6 9d3d 0059 bf3d
00000250: 9fef 403d 6fee d03d 4273 f4be af52 7fbd
00000260: a5d2 0bbd 5ed6 89be 3037 40be 5ef4 9b3d
00000270: ba55 ba3e ad1d 3fbf 13ce 5f3e 51a1 5a3e
00000280: d314 523e a47e 493b 2b29 1a3e 5fac aebe
00000290: 2794 9a3d 606e 6e3c 620e 8fbe 4c24 4dbe
000002a0: d115 973d 28ac 19bd 282e 81bd 5055 e43e
000002b0: ab7a e53d 9a25 edbd 3738 8abe d3a2 243f
000002c0: 6412 053f 5639 c1be 207b b83b 8498 c23c
000002d0: 1e8b 7a3e e89e ef3e 6f02 e43c a897 dbbe
000002e0: b24a e93e c902 73be 2b49 d8be c64e f83d
000002f0: 439d 57bf 8b71 ef3d 940d b4be 6505 493e
00000300: e8d8 3fbe 15d1 853e a036 52be be34 24bf
00000310: 4274 7e3e 1f3f a13e 58fe a2be c189 193e
00000320: 6dea 12be adc9 183d 2d0f e23e 16ca 2c3d
00000330: 4f50 41be 676f ac3e d58c 563e 7c4d 03be
00000340: 06b3 af3e 14c7 283e 307b 3a3d 608e b4bd
00000350: 372c 043e 90e1 e6be 22b4 c53e 50ab 843e
00000360: c8bb c5be 5025 ca3d 783d fdbd 3495 203e
00000370: d038 8bbc 390e a6bd d809 833e 7c15 b0bd
00000380: 16c8 dd3d 570a 10be 6dcb 27bf dbad 953e
00000390: 0a42 0fbc 69ed b6bd 8dc2 25bd 28d7 16bd
000003a0: dd3c f9be 7ee5 f73d a299 483d cd74 c0be
000003b0: 2077 a1be 593c 41be 5bf4 9b3e 816f 813e
000003c0: 5940 053c 1114 e13e 0c87 4ebe 26e9 f6be
000003d0: 9a16 073e a400 ad3e 3cfb c93e 3fe2 99bd
000003e0: 3405 253e f594 b53e b563 d33e b94f 25bf
000003f0: 1f08 ff3e 3bc6 88be 3369 b03e 5ec1 0ebe
-0.56576115 0.37561384 -0.117049344 -0.45518872 0.6780516 -0.41077593 -0.06790989 0.34515208
-0.34371176 -0.3859255 -0.18298642 0.02817271 0.26837805 -0.6208154 0.04392669 -0.048280366
-0.2890429 -0.6926657 0.15478894 -0.16962066 -0.6278348 0.8620213 -0.01438963 -0.30951172
-0.01703265 0.116041146 0.4981753 0.3940914 -0.32022342 0.2868629 0.24485989 0.0882542
0.6298027 0.3318908 -0.2526109 0.41968003 -0.2576371 -0.0303291 -0.5799116 -0.10294311
-0.31960496 0.13745587 -0.18369877 0.41016445 0.26753548 0.121138155 0.03218695 -0.12644376
0.38984087 -0.006777677 -0.23373175 0.43216392 -0.24272503 -0.3674486 0.12902616 -0.12828691
0.16704057 0.08118381 -0.06871776 0.06328219 -0.07087196 0.304019 0.40030518 -0.2875314
-0.41668177 -0.30961058 -0.16407727 -0.1738541 -0.046983413 -0.3251083 -0.14116335 -0.22604744
-0.40942097 0.2748389 -0.11242052 -0.19958459 0.044046156 -0.087096855 0.07481716 0.16927594
0.5432894 -0.48302725 -0.10283122 0.31969413 -0.30813193 0.38718 0.2580974 -0.15459757
0.20787407 -0.47503537 -0.33619174 0.12392255 0.08775416 -0.5205507 -0.023138775 -0.32659587
0.22487059 0.2841262 -0.10424261 -0.3583877 0.132369 -0.012482676 0.051443487 -0.011352012
0.056910288 -0.07269087 -0.11696526 0.2529326 -0.10387876 0.15644325 -0.12746514 0.017189229
-0.1666307 -0.11251657 -0.15253982 -0.2448698 -0.009594916 -0.21721733 -0.5017408 -0.100741185
0.115203 -0.36430508 0.016462306 -0.36090064 -0.2732256 0.29287347 -0.2015949 0.23495288
0.16389988 -0.13774897 0.025266496 0.18606703 -0.2470573 -0.25036433 0.2869966 0.1009982
-0.14228679 0.08132778 -0.031369135 -0.20648605 -0.0092013925 -0.013565033 -0.13541408 0.09837221
-0.28635055 0.34597895 0.07706952 0.09343147 0.04710352 0.102017276 -0.47744185 -0.062334713
-0.034136433 -0.26921362 -0.18771052 0.07614969 0.3639353 -0.74654657 0.21855955 0.213506
0.20515756 0.003074565 0.15054767 -0.34115884 0.07547789 0.014552683 -0.2794066 -0.20033377
0.07377208 -0.037517697 -0.06307632 0.44596338 0.11205038 -0.115794376 -0.26996014 0.6431095
0.51981187 -0.37739056 0.005629912 0.023754366 0.24467131 0.46800923 0.027833192 -0.42889142
0.455648 -0.23731531 -0.42243323 0.121244 -0.8422434 0.116915785 -0.3516661 0.19630964
-0.18735087 0.2613608 -0.2052865 -0.6414298 0.24849036 0.3149347 -0.31834674 0.14993955
-0.14347239 0.037301708 0.44152203 0.04218491 -0.18878292 0.33678743 0.2095216 -0.12822527
0.34316272 0.16482192 0.045527637 -0.088162184 0.12907492 -0.45093966 0.38613993 0.2591195
-0.38619828 0.09870398 -0.1236524 0.15681916 -0.016994864 -0.081081815 0.25593448 -0.08597848
0.10829179 -0.14066444 -0.6554478 0.29234204 -0.008743772 -0.08932001 -0.04046874 -0.036826283
-0.48679247 0.12104319 0.04897464 -0.37589112 -0.31536198 -0.18870677 0.30459866 0.25280383
0.008133017 0.43960622 -0.20168704 -0.48224753 0.13192216 0.3378955 0.3944949 -0.07513856
0.16115266 0.35465208 0.41287008 -0.6457477 0.49810883 -0.26713738 0.3445526 -0.13940951

onnx::Conv_140 f4 [28]
00000000: 8866 473f b97b ddbe 08ea 9a3b 8a09 283f
00000010: 7cce 703e 1263 dd3e 1c5e 743f aa17 bb3e
00000020: 4ebd 0d3f df6f 89be d099 bfbd 30d9 a33e
00000030: 0e5c 9bbd 0ce9 753e ff6a fc3f 583f 7dbd
00000040: 3a28 263f d106 5ebf c316 a1be 9bfd 343e
00000050: 678c 9dbf b86e cabe b018 2fbc da4d 21bf
00000060: 0081 243f 1246 fbbe 9f59 1b3f 7a50 363f
0.77890825 -0.43258455 0.0047276057 0.65639555 0.23516268 0.43239647 0.954561 0.36541492
0.5536698 -0.26843163 -0.09355509 0.32001638 -0.075859174 0.24014682 1.9720153 -0.061827987
0.6490513 -0.8672915 -0.31462678 0.17674868 -1.2308472 -0.39537597 -0.010687038 -0.6300942
0.6425934 -0.49076897 0.60683626 0.7121655

onnx::Conv_142 f4 [28, 1, 3, 3]
00000000: a57a 743f 617b 183f 635b 73be 880a f33d
00000010: e771 cbbe 8967 243f 5ae2 bb3e 77b8 af3c
00000020: 6c2c 12be 0734 ee3e 6428 38bd 8220 c03e
00000030: 9e36 323f 6562 173f 4efd e43e 6677 f8be
00000040: 6de5 8d3e 74f7 24be 6cfd 0cbf 52a4 28bf
00000050: 5efd 853f 47b2 a43f b527 80bd b54b 8f3f
00000060: f0bb bebf 5566 c3bd d28c 7fbf d0a9 b93f
00000070: 0890 f0be fddd 5f3e 4c58 7d3f 6431 c43e
00000080: b045 c8be 6150 40bd 6be6 a13e 46b4 9f3f
00000090: 96ee 263e 3fee 523d 8fe7 c83d 4924 1d3e
000000a0: 59c1 1b3e 071c 9b3d 21fc e03e 9e6f e13e
000000b0: a9ae 593f 591a b43e 3abd 6f3e 3af8 433f
000000c0: c867 ba3e 72f0 6f3e b500 d13b 98e0 393e
000000d0: 2514 b33e 2e8c aabd 7bb0 553f 72d9 dc3e
000000e0: 5d5d 4f3f 2d89 603e e18d 1b3f 3836 fc3e
000000f0: 32ab 52bf 03ae 4fbf 8bf1 90bf 8e78 563f
00000100: 63b5 3c3f 7ef0 193e 8657 2f3d a237 8dbe
00000110: 5919 ac3d b746 cc3e 98f7 653e f9cd 0a3e
00000120: 513e 903f 401d 913f d2d7 9b3f ab12 5fbe
00000130: 65a6 79bf 9130 d23d 1eac 963e c751 cb3e
00000140: 9015 4ebe 3849 bd3e f88b 2e3f 110c 2d3f
00000150: efc4 ea3d 44f8 a43e da75 783e 6cf7 993d
00000160: e89a cc3e aae0 0b3f 22c2 67bd 9b56 be3e
00000170: 9b7e 3c3e 983d 463e a2dc d83e 080d 2cbd
00000180: 3393 bc3e 2bcd f83e d95e 10be 8361 3dbf
00000190: f51b 95bf d17c 10bf 9633 25bf 7dc9 85be
000001a0: 126e 723e 1e45 753f 63a0 163f b293 3d3f
000001b0: 4d44 f83b 08c6 53bf 32ba 9dbf a334 ab3d
000001c0: 66e2 5f3f 35e2 0c3e 67f5 1cbf 63fe 6cbf
000001d0: 3062 5bbf 0dfb 9cbf 4c41 343f 7aca 49be
000001e0: e5ab babf a04a 413e e45c 82be 1e32 83be
000001f0: 6e64 143f d58a 533c 4787 f9be a7eb f9be
00000200: 403e 06be f820 0dbf 78ca 27bf 27dc 9a3e
00000210: 2a88 05bf d68d 36bf ffc8 10bf e5ec febe
00000220: 5f9c 783e 72a5 22be 636d 12bf 8ac9 00bf
00000230: 377f d13d 0bd1 97be 3c7a 7abe 3cdf a5be
00000240: 57de 0b3e b089 053f e104 6a3f f419 48bf
00000250: ccdf a3be 4a45 6cbf cfdc 26bf cf54 003f
00000260: 5e1c 03be 145a 9d3f b817 ac3d 17fc aabe
00000270: 12a7 26be ee0a d93e 3834 3dbf 36d6 ed3e
00000280: 7e9c 193e 7a02 5b3e da95 0c3f 4eb5 febd
00000290: 8f1c 163f e051 85bf 36cf 1abf 2366 cf3e
000002a0: 0543 963e e798 bfbe 66d6 46be 6370 4ebf
000002b0: 76ea cd3e d128 2d3e 912f 98be 57e8 58bd
000002c0: f8d5 313f 6c4c 0ebf 96d1 c8be 7613 503f
000002d0: 6c61 173e 24be 2ebf 5cbd 89bf ed9d 853e
000002e0: bd6d 933e 1e9c a93e ba2d f83e e284 60bf
000002f0: 3b9b 0a3f 2595 97be 8add 7d3e 0510 f43e
00000300: 80b0 2c3d 53b1 813e 126c e6be e9f9 28bf
00000310: 70ec 2cbf ac1f ea3e 96bf 833e 6e9a 63bf
00000320: e25e 873f a459 e83e dcee c2bf bf30 3c3f
00000330: 5d82 7ebe 471c d2be 0424 2b3f 6553 203f
00000340: 6a64 5b3e a961 8c3e e899 2f3f 63a9 e13d
00000350: 4b0c 04bf 6a9b 2d3f df4c a1bd daf4 7b3e
00000360: 9a3c 94bf 2d03 2bbf 25cf febf 9645 30bf
00000370: cc60 633f 2330 ca3e 3658 153f f1c7 183e
00000380: 9fee 703e 2269 723d e403 653f d789 d6be
00000390: b026 573f 052b 473f 0e1a 9bbf 041c ab3e
000003a0: a249 25be 5b5d 42bf df91 833f e8d4 b33d
000003b0: 1c13 613f 1852 45bf 5f3f a93d eae1 a9bf
000003c0: 3e22 0b3f 070e 2d3f 211c aa3f 1214 df3d
000003d0: f6fc 55bf c1fe 51be d72c e3be acb6 a8be
000003e0: d0ec 82bf 5749 cebe 502a a93d 88ee 8bbf
0.9549964 0.5956326 -0.2376533 0.11867243 -0.39735338 0.6422048 0.3669613 0.021450264
-0.14274758 0.4652407 -0.044960395 0.37524801 0.6961459 0.59134513 0.44724506 -0.48528594
0.277141 -0.16110021 -0.5507419 -0.6587573 1.0467947 1.2866906 -0.062575735 1.1194979
-1.4901104 -0.09541003 -0.9982425 1.4504948 -0.46984887 0.21862026 0.98962855 0.38318932
-0.39115667 -0.046951655 0.31621107 1.247689 0.16301951 0.05149674 0.09809791 0.15345873
0.15210475 0.07573705 0.4394236 0.4403047 0.85032135 0.35176352 0.23412028 0.7655064
0.36407304 0.23431566 0.006378258 0.18152082 0.34976307 -0.083275184 0.8347241 0.43134648
0.81001836 0.21927328 0.60763365 0.49260116 -0.82292473 -0.81124896 -1.1323713 0.837777
0.73714274 0.15033147 0.04280808 -0.27581507 0.08403272 0.398977 0.22457731 0.13555135
1.1269017 1.1337051 1.2175238 -0.21784465 -0.9751952 0.102631696 0.2942819 0.3971083
-0.20125413 0.36969924 0.68182325 0.67596537 0.11463343 0.32220662 0.24263707 0.07517895
0.39961934 0.54639685 -0.056581624 0.3717545 0.18407671 0.19359434 0.4235583 -0.042004615
0.36831054 0.4859403 -0.14098682 -0.73976916 -1.1649157 -0.56440455 -0.6453184 -0.26130286
0.23674801 0.9580859 0.5883848 0.7405349 0.0075765015 -0.82724047 -1.2322447 0.08359649
0.8745483 0.13758166 -0.61311954 -0.92575663 -0.856967 -1.2264115 0.70412135 -0.19706145
-1.4583708 0.18876123 -0.25461495 -0.25624174 0.57965744 0.012911518 -0.4873602 -0.488126
-0.13109684 -0.5512843 -0.6554332 0.30246088 -0.52160895 -0.71310174 -0.56556696 -0.4979011
0.24278401 -0.15883425 -0.5719816 -0.50307524 0.102293424 -0.29651675 -0.24460691 -0.32396877
0.13659035 0.5216322 0.91413695 -0.781646 -0.3200668 -0.92293227 -0.6518068 0.5012941
-0.1280379 1.2293115 0.084029615 -0.33395454 -0.1627467 0.4239115 -0.73907804 0.46452492
0.15001103 0.21387663 0.54916155 -0.12436925 0.58637327 -1.0415611 -0.6047243 0.40507612
0.29348007 -0.37421343 -0.19417724 -0.8064024 0.40217942 0.16910101 -0.2972379 -0.05295595
0.69467115 -0.5558536 -0.392224 0.81279695 0.14783257 -0.6825888 -1.0760913 0.2609705
0.2879466 0.3312692 0.48472387 -0.87702763 0.5414311 -0.29605976 0.24791542 0.47668472
0.04216051 0.253306 -0.45004326 -0.6600633 -0.67548275 0.4572729 0.25732106 -0.88907516
1.0575831 0.4538089 -1.5229144 0.7351188 -0.24854417 -0.410372 0.6685183 0.6262725
0.21425024 0.2741826 0.6859422 0.11018636 -0.5158126 0.6781527 -0.0787599 0.24605122
-1.1580994 -0.6680172 -1.9906965 -0.6885618 0.88819575 0.3948985 0.58337724 0.14920022
0.23528527 0.059182294 0.8945906 -0.41902038 0.8404341 0.7780002 -1.2117326 0.33419812
-0.1614137 -0.759237 1.0278891 0.08780843 0.87919784 -0.7707839 0.0826404 -1.3272069
0.54349124 0.6759953 1.3289834 0.108925 -0.8358911 -0.20507337 -0.44370148 -0.32951868
-1.022852 -0.4029033 0.082600236 -1.0932169

onnx::Conv_143 f4 [28]
00000000: 5f33 35bf ff77 4bbf 60b3 973b bd1f 9bbf
00000010: 356a 55bf 187d 55bf dcca e6bd f1d3 39bf
00000020: f7fe 19bf 8d5c 8bbf abf0 28bf b186 cf3e
00000030: 97ea 613f ddb8 1e3f 17a9 a83f c022 3c3f
00000040: 7e64 7e3e 4dfc d2be d805 063e a677 e2bc
00000050: e31b 243e 25e3 0b3e 83f9 b53d 3df7 3cbf
00000060: de27 413f f8d4 57bc e414 71bf 5b7f b33f
-0.7078151 -0.79479975 0.0046295375 -1.2119061 -0.83365184 -0.83394 -0.11269161 -0.7258902
-0.6015467 -1.0887619 -0.6599223 0.4053245 0.8824858 0.6200083 1.3176602 0.73490524
0.24843022 -0.41208115 0.13088167 -0.027644943 0.16026263 0.13660868 0.08885481 -0.73814756
0.7545146 -0.013173334 -0.941725 1.4023241
